<net name="image-classification" version="2" batch="1">
  <layers>
    <layer name="data" type="Input" id="1" precision="FP16">
      <output>
        <port id="1">
          <dim>1</dim>
          <dim>3</dim>
          <dim>300</dim>
          <dim>300</dim>
        </port>
      </output>
    </layer>
    <layer name="ScaleShift_bn_data" type="ScaleShift" id="2" precision="FP16">
      <input>
        <port id="3">
          <dim>1</dim>
          <dim>3</dim>
          <dim>300</dim>
          <dim>300</dim>
        </port>
      </input>
      <output>
        <port id="2">
          <dim>1</dim>
          <dim>3</dim>
          <dim>300</dim>
          <dim>300</dim>
        </port>
      </output>
      <weights size="6" offset="0"/>
      <biases size="6" offset="6"/>
    </layer>
    <layer name="Convolution_conv0" type="Convolution" id="3" precision="FP16">
      <convolution_data stride-x="2" stride-y="2" pad-x="3" pad-y="3" kernel-x="7" kernel-y="7" output="64" group="1"/>
      <input>
        <port id="5">
          <dim>1</dim>
          <dim>3</dim>
          <dim>300</dim>
          <dim>300</dim>
        </port>
      </input>
      <output>
        <port id="4">
          <dim>1</dim>
          <dim>64</dim>
          <dim>150</dim>
          <dim>150</dim>
        </port>
      </output>
      <weights size="18816" offset="12"/>
      <biases size="128" offset="18828"/>
    </layer>
    <layer name="ReLU_relu0" type="ReLU" id="4" precision="FP16">
      <input>
        <port id="7">
          <dim>1</dim>
          <dim>64</dim>
          <dim>150</dim>
          <dim>150</dim>
        </port>
      </input>
      <output>
        <port id="6">
          <dim>1</dim>
          <dim>64</dim>
          <dim>150</dim>
          <dim>150</dim>
        </port>
      </output>
    </layer>
    <layer name="Pooling_pooling0" type="Pooling" id="5" precision="FP16">
      <pooling_data stride-x="2" stride-y="2" pad-x="1" pad-y="1" kernel-x="3" kernel-y="3" rounding-type="ceil" pool-method="max"/>
      <input>
        <port id="9">
          <dim>1</dim>
          <dim>64</dim>
          <dim>150</dim>
          <dim>150</dim>
        </port>
      </input>
      <output>
        <port id="8">
          <dim>1</dim>
          <dim>64</dim>
          <dim>75</dim>
          <dim>75</dim>
        </port>
      </output>
    </layer>
    <layer name="ScaleShift_stage1_unit1_bn1" type="ScaleShift" id="6" precision="FP16">
      <input>
        <port id="11">
          <dim>1</dim>
          <dim>64</dim>
          <dim>75</dim>
          <dim>75</dim>
        </port>
      </input>
      <output>
        <port id="10">
          <dim>1</dim>
          <dim>64</dim>
          <dim>75</dim>
          <dim>75</dim>
        </port>
      </output>
      <weights size="128" offset="18956"/>
      <biases size="128" offset="19084"/>
    </layer>
    <layer name="ReLU_stage1_unit1_relu1" type="ReLU" id="7" precision="FP16">
      <input>
        <port id="13">
          <dim>1</dim>
          <dim>64</dim>
          <dim>75</dim>
          <dim>75</dim>
        </port>
      </input>
      <output>
        <port id="12">
          <dim>1</dim>
          <dim>64</dim>
          <dim>75</dim>
          <dim>75</dim>
        </port>
      </output>
    </layer>
    <layer name="Convolution_stage1_unit1_conv1" type="Convolution" id="8" precision="FP16">
      <convolution_data stride-x="1" stride-y="1" pad-x="0" pad-y="0" kernel-x="1" kernel-y="1" output="64" group="1"/>
      <input>
        <port id="15">
          <dim>1</dim>
          <dim>64</dim>
          <dim>75</dim>
          <dim>75</dim>
        </port>
      </input>
      <output>
        <port id="14">
          <dim>1</dim>
          <dim>64</dim>
          <dim>75</dim>
          <dim>75</dim>
        </port>
      </output>
      <weights size="8192" offset="19212"/>
      <biases size="128" offset="27404"/>
    </layer>
    <layer name="ReLU_stage1_unit1_relu2" type="ReLU" id="9" precision="FP16">
      <input>
        <port id="17">
          <dim>1</dim>
          <dim>64</dim>
          <dim>75</dim>
          <dim>75</dim>
        </port>
      </input>
      <output>
        <port id="16">
          <dim>1</dim>
          <dim>64</dim>
          <dim>75</dim>
          <dim>75</dim>
        </port>
      </output>
    </layer>
    <layer name="Convolution_stage1_unit1_conv2" type="Convolution" id="10" precision="FP16">
      <convolution_data stride-x="1" stride-y="1" pad-x="1" pad-y="1" kernel-x="3" kernel-y="3" output="64" group="1"/>
      <input>
        <port id="19">
          <dim>1</dim>
          <dim>64</dim>
          <dim>75</dim>
          <dim>75</dim>
        </port>
      </input>
      <output>
        <port id="18">
          <dim>1</dim>
          <dim>64</dim>
          <dim>75</dim>
          <dim>75</dim>
        </port>
      </output>
      <weights size="73728" offset="27532"/>
      <biases size="128" offset="101260"/>
    </layer>
    <layer name="ReLU_stage1_unit1_relu3" type="ReLU" id="11" precision="FP16">
      <input>
        <port id="21">
          <dim>1</dim>
          <dim>64</dim>
          <dim>75</dim>
          <dim>75</dim>
        </port>
      </input>
      <output>
        <port id="20">
          <dim>1</dim>
          <dim>64</dim>
          <dim>75</dim>
          <dim>75</dim>
        </port>
      </output>
    </layer>
    <layer name="Convolution_stage1_unit1_conv3" type="Convolution" id="12" precision="FP16">
      <convolution_data stride-x="1" stride-y="1" pad-x="0" pad-y="0" kernel-x="1" kernel-y="1" output="256" group="1"/>
      <input>
        <port id="23">
          <dim>1</dim>
          <dim>64</dim>
          <dim>75</dim>
          <dim>75</dim>
        </port>
      </input>
      <output>
        <port id="22">
          <dim>1</dim>
          <dim>256</dim>
          <dim>75</dim>
          <dim>75</dim>
        </port>
      </output>
      <weights size="32768" offset="101388"/>
    </layer>
    <layer name="Convolution_stage1_unit1_sc" type="Convolution" id="13" precision="FP16">
      <convolution_data stride-x="1" stride-y="1" pad-x="0" pad-y="0" kernel-x="1" kernel-y="1" output="256" group="1"/>
      <input>
        <port id="25">
          <dim>1</dim>
          <dim>64</dim>
          <dim>75</dim>
          <dim>75</dim>
        </port>
      </input>
      <output>
        <port id="24">
          <dim>1</dim>
          <dim>256</dim>
          <dim>75</dim>
          <dim>75</dim>
        </port>
      </output>
      <weights size="32768" offset="134156"/>
    </layer>
    <layer name="Eltwise__plus0" type="Eltwise" id="14" precision="FP16">
      <elementwise_data operation=""/>
      <input>
        <port id="27">
          <dim>1</dim>
          <dim>256</dim>
          <dim>75</dim>
          <dim>75</dim>
        </port>
        <port id="28">
          <dim>1</dim>
          <dim>256</dim>
          <dim>75</dim>
          <dim>75</dim>
        </port>
      </input>
      <output>
        <port id="26">
          <dim>1</dim>
          <dim>256</dim>
          <dim>75</dim>
          <dim>75</dim>
        </port>
      </output>
    </layer>
    <layer name="ScaleShift_stage1_unit2_bn1" type="ScaleShift" id="15" precision="FP16">
      <input>
        <port id="30">
          <dim>1</dim>
          <dim>256</dim>
          <dim>75</dim>
          <dim>75</dim>
        </port>
      </input>
      <output>
        <port id="29">
          <dim>1</dim>
          <dim>256</dim>
          <dim>75</dim>
          <dim>75</dim>
        </port>
      </output>
      <weights size="512" offset="166924"/>
      <biases size="512" offset="167436"/>
    </layer>
    <layer name="ReLU_stage1_unit2_relu1" type="ReLU" id="16" precision="FP16">
      <input>
        <port id="32">
          <dim>1</dim>
          <dim>256</dim>
          <dim>75</dim>
          <dim>75</dim>
        </port>
      </input>
      <output>
        <port id="31">
          <dim>1</dim>
          <dim>256</dim>
          <dim>75</dim>
          <dim>75</dim>
        </port>
      </output>
    </layer>
    <layer name="Convolution_stage1_unit2_conv1" type="Convolution" id="17" precision="FP16">
      <convolution_data stride-x="1" stride-y="1" pad-x="0" pad-y="0" kernel-x="1" kernel-y="1" output="64" group="1"/>
      <input>
        <port id="34">
          <dim>1</dim>
          <dim>256</dim>
          <dim>75</dim>
          <dim>75</dim>
        </port>
      </input>
      <output>
        <port id="33">
          <dim>1</dim>
          <dim>64</dim>
          <dim>75</dim>
          <dim>75</dim>
        </port>
      </output>
      <weights size="32768" offset="167948"/>
      <biases size="128" offset="200716"/>
    </layer>
    <layer name="ReLU_stage1_unit2_relu2" type="ReLU" id="18" precision="FP16">
      <input>
        <port id="36">
          <dim>1</dim>
          <dim>64</dim>
          <dim>75</dim>
          <dim>75</dim>
        </port>
      </input>
      <output>
        <port id="35">
          <dim>1</dim>
          <dim>64</dim>
          <dim>75</dim>
          <dim>75</dim>
        </port>
      </output>
    </layer>
    <layer name="Convolution_stage1_unit2_conv2" type="Convolution" id="19" precision="FP16">
      <convolution_data stride-x="1" stride-y="1" pad-x="1" pad-y="1" kernel-x="3" kernel-y="3" output="64" group="1"/>
      <input>
        <port id="38">
          <dim>1</dim>
          <dim>64</dim>
          <dim>75</dim>
          <dim>75</dim>
        </port>
      </input>
      <output>
        <port id="37">
          <dim>1</dim>
          <dim>64</dim>
          <dim>75</dim>
          <dim>75</dim>
        </port>
      </output>
      <weights size="73728" offset="200844"/>
      <biases size="128" offset="274572"/>
    </layer>
    <layer name="ReLU_stage1_unit2_relu3" type="ReLU" id="20" precision="FP16">
      <input>
        <port id="40">
          <dim>1</dim>
          <dim>64</dim>
          <dim>75</dim>
          <dim>75</dim>
        </port>
      </input>
      <output>
        <port id="39">
          <dim>1</dim>
          <dim>64</dim>
          <dim>75</dim>
          <dim>75</dim>
        </port>
      </output>
    </layer>
    <layer name="Convolution_stage1_unit2_conv3" type="Convolution" id="21" precision="FP16">
      <convolution_data stride-x="1" stride-y="1" pad-x="0" pad-y="0" kernel-x="1" kernel-y="1" output="256" group="1"/>
      <input>
        <port id="42">
          <dim>1</dim>
          <dim>64</dim>
          <dim>75</dim>
          <dim>75</dim>
        </port>
      </input>
      <output>
        <port id="41">
          <dim>1</dim>
          <dim>256</dim>
          <dim>75</dim>
          <dim>75</dim>
        </port>
      </output>
      <weights size="32768" offset="274700"/>
    </layer>
    <layer name="Eltwise__plus1" type="Eltwise" id="22" precision="FP16">
      <elementwise_data operation=""/>
      <input>
        <port id="44">
          <dim>1</dim>
          <dim>256</dim>
          <dim>75</dim>
          <dim>75</dim>
        </port>
        <port id="45">
          <dim>1</dim>
          <dim>256</dim>
          <dim>75</dim>
          <dim>75</dim>
        </port>
      </input>
      <output>
        <port id="43">
          <dim>1</dim>
          <dim>256</dim>
          <dim>75</dim>
          <dim>75</dim>
        </port>
      </output>
    </layer>
    <layer name="ScaleShift_stage1_unit3_bn1" type="ScaleShift" id="23" precision="FP16">
      <input>
        <port id="47">
          <dim>1</dim>
          <dim>256</dim>
          <dim>75</dim>
          <dim>75</dim>
        </port>
      </input>
      <output>
        <port id="46">
          <dim>1</dim>
          <dim>256</dim>
          <dim>75</dim>
          <dim>75</dim>
        </port>
      </output>
      <weights size="512" offset="307468"/>
      <biases size="512" offset="307980"/>
    </layer>
    <layer name="ReLU_stage1_unit3_relu1" type="ReLU" id="24" precision="FP16">
      <input>
        <port id="49">
          <dim>1</dim>
          <dim>256</dim>
          <dim>75</dim>
          <dim>75</dim>
        </port>
      </input>
      <output>
        <port id="48">
          <dim>1</dim>
          <dim>256</dim>
          <dim>75</dim>
          <dim>75</dim>
        </port>
      </output>
    </layer>
    <layer name="Convolution_stage1_unit3_conv1" type="Convolution" id="25" precision="FP16">
      <convolution_data stride-x="1" stride-y="1" pad-x="0" pad-y="0" kernel-x="1" kernel-y="1" output="64" group="1"/>
      <input>
        <port id="51">
          <dim>1</dim>
          <dim>256</dim>
          <dim>75</dim>
          <dim>75</dim>
        </port>
      </input>
      <output>
        <port id="50">
          <dim>1</dim>
          <dim>64</dim>
          <dim>75</dim>
          <dim>75</dim>
        </port>
      </output>
      <weights size="32768" offset="308492"/>
      <biases size="128" offset="341260"/>
    </layer>
    <layer name="ReLU_stage1_unit3_relu2" type="ReLU" id="26" precision="FP16">
      <input>
        <port id="53">
          <dim>1</dim>
          <dim>64</dim>
          <dim>75</dim>
          <dim>75</dim>
        </port>
      </input>
      <output>
        <port id="52">
          <dim>1</dim>
          <dim>64</dim>
          <dim>75</dim>
          <dim>75</dim>
        </port>
      </output>
    </layer>
    <layer name="Convolution_stage1_unit3_conv2" type="Convolution" id="27" precision="FP16">
      <convolution_data stride-x="1" stride-y="1" pad-x="1" pad-y="1" kernel-x="3" kernel-y="3" output="64" group="1"/>
      <input>
        <port id="55">
          <dim>1</dim>
          <dim>64</dim>
          <dim>75</dim>
          <dim>75</dim>
        </port>
      </input>
      <output>
        <port id="54">
          <dim>1</dim>
          <dim>64</dim>
          <dim>75</dim>
          <dim>75</dim>
        </port>
      </output>
      <weights size="73728" offset="341388"/>
      <biases size="128" offset="415116"/>
    </layer>
    <layer name="ReLU_stage1_unit3_relu3" type="ReLU" id="28" precision="FP16">
      <input>
        <port id="57">
          <dim>1</dim>
          <dim>64</dim>
          <dim>75</dim>
          <dim>75</dim>
        </port>
      </input>
      <output>
        <port id="56">
          <dim>1</dim>
          <dim>64</dim>
          <dim>75</dim>
          <dim>75</dim>
        </port>
      </output>
    </layer>
    <layer name="Convolution_stage1_unit3_conv3" type="Convolution" id="29" precision="FP16">
      <convolution_data stride-x="1" stride-y="1" pad-x="0" pad-y="0" kernel-x="1" kernel-y="1" output="256" group="1"/>
      <input>
        <port id="59">
          <dim>1</dim>
          <dim>64</dim>
          <dim>75</dim>
          <dim>75</dim>
        </port>
      </input>
      <output>
        <port id="58">
          <dim>1</dim>
          <dim>256</dim>
          <dim>75</dim>
          <dim>75</dim>
        </port>
      </output>
      <weights size="32768" offset="415244"/>
    </layer>
    <layer name="Eltwise__plus2" type="Eltwise" id="30" precision="FP16">
      <elementwise_data operation=""/>
      <input>
        <port id="61">
          <dim>1</dim>
          <dim>256</dim>
          <dim>75</dim>
          <dim>75</dim>
        </port>
        <port id="62">
          <dim>1</dim>
          <dim>256</dim>
          <dim>75</dim>
          <dim>75</dim>
        </port>
      </input>
      <output>
        <port id="60">
          <dim>1</dim>
          <dim>256</dim>
          <dim>75</dim>
          <dim>75</dim>
        </port>
      </output>
    </layer>
    <layer name="ScaleShift_stage2_unit1_bn1" type="ScaleShift" id="31" precision="FP16">
      <input>
        <port id="64">
          <dim>1</dim>
          <dim>256</dim>
          <dim>75</dim>
          <dim>75</dim>
        </port>
      </input>
      <output>
        <port id="63">
          <dim>1</dim>
          <dim>256</dim>
          <dim>75</dim>
          <dim>75</dim>
        </port>
      </output>
      <weights size="512" offset="448012"/>
      <biases size="512" offset="448524"/>
    </layer>
    <layer name="ReLU_stage2_unit1_relu1" type="ReLU" id="32" precision="FP16">
      <input>
        <port id="66">
          <dim>1</dim>
          <dim>256</dim>
          <dim>75</dim>
          <dim>75</dim>
        </port>
      </input>
      <output>
        <port id="65">
          <dim>1</dim>
          <dim>256</dim>
          <dim>75</dim>
          <dim>75</dim>
        </port>
      </output>
    </layer>
    <layer name="Convolution_stage2_unit1_conv1" type="Convolution" id="33" precision="FP16">
      <convolution_data stride-x="1" stride-y="1" pad-x="0" pad-y="0" kernel-x="1" kernel-y="1" output="128" group="1"/>
      <input>
        <port id="68">
          <dim>1</dim>
          <dim>256</dim>
          <dim>75</dim>
          <dim>75</dim>
        </port>
      </input>
      <output>
        <port id="67">
          <dim>1</dim>
          <dim>128</dim>
          <dim>75</dim>
          <dim>75</dim>
        </port>
      </output>
      <weights size="65536" offset="449036"/>
      <biases size="256" offset="514572"/>
    </layer>
    <layer name="ReLU_stage2_unit1_relu2" type="ReLU" id="34" precision="FP16">
      <input>
        <port id="70">
          <dim>1</dim>
          <dim>128</dim>
          <dim>75</dim>
          <dim>75</dim>
        </port>
      </input>
      <output>
        <port id="69">
          <dim>1</dim>
          <dim>128</dim>
          <dim>75</dim>
          <dim>75</dim>
        </port>
      </output>
    </layer>
    <layer name="Convolution_stage2_unit1_conv2" type="Convolution" id="35" precision="FP16">
      <convolution_data stride-x="2" stride-y="2" pad-x="1" pad-y="1" kernel-x="3" kernel-y="3" output="128" group="1"/>
      <input>
        <port id="72">
          <dim>1</dim>
          <dim>128</dim>
          <dim>75</dim>
          <dim>75</dim>
        </port>
      </input>
      <output>
        <port id="71">
          <dim>1</dim>
          <dim>128</dim>
          <dim>38</dim>
          <dim>38</dim>
        </port>
      </output>
      <weights size="294912" offset="514828"/>
      <biases size="256" offset="809740"/>
    </layer>
    <layer name="ReLU_stage2_unit1_relu3" type="ReLU" id="36" precision="FP16">
      <input>
        <port id="74">
          <dim>1</dim>
          <dim>128</dim>
          <dim>38</dim>
          <dim>38</dim>
        </port>
      </input>
      <output>
        <port id="73">
          <dim>1</dim>
          <dim>128</dim>
          <dim>38</dim>
          <dim>38</dim>
        </port>
      </output>
    </layer>
    <layer name="Convolution_stage2_unit1_conv3" type="Convolution" id="37" precision="FP16">
      <convolution_data stride-x="1" stride-y="1" pad-x="0" pad-y="0" kernel-x="1" kernel-y="1" output="512" group="1"/>
      <input>
        <port id="76">
          <dim>1</dim>
          <dim>128</dim>
          <dim>38</dim>
          <dim>38</dim>
        </port>
      </input>
      <output>
        <port id="75">
          <dim>1</dim>
          <dim>512</dim>
          <dim>38</dim>
          <dim>38</dim>
        </port>
      </output>
      <weights size="131072" offset="809996"/>
    </layer>
    <layer name="Convolution_stage2_unit1_sc" type="Convolution" id="38" precision="FP16">
      <convolution_data stride-x="2" stride-y="2" pad-x="0" pad-y="0" kernel-x="1" kernel-y="1" output="512" group="1"/>
      <input>
        <port id="78">
          <dim>1</dim>
          <dim>256</dim>
          <dim>75</dim>
          <dim>75</dim>
        </port>
      </input>
      <output>
        <port id="77">
          <dim>1</dim>
          <dim>512</dim>
          <dim>38</dim>
          <dim>38</dim>
        </port>
      </output>
      <weights size="262144" offset="941068"/>
    </layer>
    <layer name="Eltwise__plus3" type="Eltwise" id="39" precision="FP16">
      <elementwise_data operation=""/>
      <input>
        <port id="80">
          <dim>1</dim>
          <dim>512</dim>
          <dim>38</dim>
          <dim>38</dim>
        </port>
        <port id="81">
          <dim>1</dim>
          <dim>512</dim>
          <dim>38</dim>
          <dim>38</dim>
        </port>
      </input>
      <output>
        <port id="79">
          <dim>1</dim>
          <dim>512</dim>
          <dim>38</dim>
          <dim>38</dim>
        </port>
      </output>
    </layer>
    <layer name="ScaleShift_stage2_unit2_bn1" type="ScaleShift" id="40" precision="FP16">
      <input>
        <port id="83">
          <dim>1</dim>
          <dim>512</dim>
          <dim>38</dim>
          <dim>38</dim>
        </port>
      </input>
      <output>
        <port id="82">
          <dim>1</dim>
          <dim>512</dim>
          <dim>38</dim>
          <dim>38</dim>
        </port>
      </output>
      <weights size="1024" offset="1203212"/>
      <biases size="1024" offset="1204236"/>
    </layer>
    <layer name="ReLU_stage2_unit2_relu1" type="ReLU" id="41" precision="FP16">
      <input>
        <port id="85">
          <dim>1</dim>
          <dim>512</dim>
          <dim>38</dim>
          <dim>38</dim>
        </port>
      </input>
      <output>
        <port id="84">
          <dim>1</dim>
          <dim>512</dim>
          <dim>38</dim>
          <dim>38</dim>
        </port>
      </output>
    </layer>
    <layer name="Convolution_stage2_unit2_conv1" type="Convolution" id="42" precision="FP16">
      <convolution_data stride-x="1" stride-y="1" pad-x="0" pad-y="0" kernel-x="1" kernel-y="1" output="128" group="1"/>
      <input>
        <port id="87">
          <dim>1</dim>
          <dim>512</dim>
          <dim>38</dim>
          <dim>38</dim>
        </port>
      </input>
      <output>
        <port id="86">
          <dim>1</dim>
          <dim>128</dim>
          <dim>38</dim>
          <dim>38</dim>
        </port>
      </output>
      <weights size="131072" offset="1205260"/>
      <biases size="256" offset="1336332"/>
    </layer>
    <layer name="ReLU_stage2_unit2_relu2" type="ReLU" id="43" precision="FP16">
      <input>
        <port id="89">
          <dim>1</dim>
          <dim>128</dim>
          <dim>38</dim>
          <dim>38</dim>
        </port>
      </input>
      <output>
        <port id="88">
          <dim>1</dim>
          <dim>128</dim>
          <dim>38</dim>
          <dim>38</dim>
        </port>
      </output>
    </layer>
    <layer name="Convolution_stage2_unit2_conv2" type="Convolution" id="44" precision="FP16">
      <convolution_data stride-x="1" stride-y="1" pad-x="1" pad-y="1" kernel-x="3" kernel-y="3" output="128" group="1"/>
      <input>
        <port id="91">
          <dim>1</dim>
          <dim>128</dim>
          <dim>38</dim>
          <dim>38</dim>
        </port>
      </input>
      <output>
        <port id="90">
          <dim>1</dim>
          <dim>128</dim>
          <dim>38</dim>
          <dim>38</dim>
        </port>
      </output>
      <weights size="294912" offset="1336588"/>
      <biases size="256" offset="1631500"/>
    </layer>
    <layer name="ReLU_stage2_unit2_relu3" type="ReLU" id="45" precision="FP16">
      <input>
        <port id="93">
          <dim>1</dim>
          <dim>128</dim>
          <dim>38</dim>
          <dim>38</dim>
        </port>
      </input>
      <output>
        <port id="92">
          <dim>1</dim>
          <dim>128</dim>
          <dim>38</dim>
          <dim>38</dim>
        </port>
      </output>
    </layer>
    <layer name="Convolution_stage2_unit2_conv3" type="Convolution" id="46" precision="FP16">
      <convolution_data stride-x="1" stride-y="1" pad-x="0" pad-y="0" kernel-x="1" kernel-y="1" output="512" group="1"/>
      <input>
        <port id="95">
          <dim>1</dim>
          <dim>128</dim>
          <dim>38</dim>
          <dim>38</dim>
        </port>
      </input>
      <output>
        <port id="94">
          <dim>1</dim>
          <dim>512</dim>
          <dim>38</dim>
          <dim>38</dim>
        </port>
      </output>
      <weights size="131072" offset="1631756"/>
    </layer>
    <layer name="Eltwise__plus4" type="Eltwise" id="47" precision="FP16">
      <elementwise_data operation=""/>
      <input>
        <port id="97">
          <dim>1</dim>
          <dim>512</dim>
          <dim>38</dim>
          <dim>38</dim>
        </port>
        <port id="98">
          <dim>1</dim>
          <dim>512</dim>
          <dim>38</dim>
          <dim>38</dim>
        </port>
      </input>
      <output>
        <port id="96">
          <dim>1</dim>
          <dim>512</dim>
          <dim>38</dim>
          <dim>38</dim>
        </port>
      </output>
    </layer>
    <layer name="ScaleShift_stage2_unit3_bn1" type="ScaleShift" id="48" precision="FP16">
      <input>
        <port id="100">
          <dim>1</dim>
          <dim>512</dim>
          <dim>38</dim>
          <dim>38</dim>
        </port>
      </input>
      <output>
        <port id="99">
          <dim>1</dim>
          <dim>512</dim>
          <dim>38</dim>
          <dim>38</dim>
        </port>
      </output>
      <weights size="1024" offset="1762828"/>
      <biases size="1024" offset="1763852"/>
    </layer>
    <layer name="ReLU_stage2_unit3_relu1" type="ReLU" id="49" precision="FP16">
      <input>
        <port id="102">
          <dim>1</dim>
          <dim>512</dim>
          <dim>38</dim>
          <dim>38</dim>
        </port>
      </input>
      <output>
        <port id="101">
          <dim>1</dim>
          <dim>512</dim>
          <dim>38</dim>
          <dim>38</dim>
        </port>
      </output>
    </layer>
    <layer name="Convolution_stage2_unit3_conv1" type="Convolution" id="50" precision="FP16">
      <convolution_data stride-x="1" stride-y="1" pad-x="0" pad-y="0" kernel-x="1" kernel-y="1" output="128" group="1"/>
      <input>
        <port id="104">
          <dim>1</dim>
          <dim>512</dim>
          <dim>38</dim>
          <dim>38</dim>
        </port>
      </input>
      <output>
        <port id="103">
          <dim>1</dim>
          <dim>128</dim>
          <dim>38</dim>
          <dim>38</dim>
        </port>
      </output>
      <weights size="131072" offset="1764876"/>
      <biases size="256" offset="1895948"/>
    </layer>
    <layer name="ReLU_stage2_unit3_relu2" type="ReLU" id="51" precision="FP16">
      <input>
        <port id="106">
          <dim>1</dim>
          <dim>128</dim>
          <dim>38</dim>
          <dim>38</dim>
        </port>
      </input>
      <output>
        <port id="105">
          <dim>1</dim>
          <dim>128</dim>
          <dim>38</dim>
          <dim>38</dim>
        </port>
      </output>
    </layer>
    <layer name="Convolution_stage2_unit3_conv2" type="Convolution" id="52" precision="FP16">
      <convolution_data stride-x="1" stride-y="1" pad-x="1" pad-y="1" kernel-x="3" kernel-y="3" output="128" group="1"/>
      <input>
        <port id="108">
          <dim>1</dim>
          <dim>128</dim>
          <dim>38</dim>
          <dim>38</dim>
        </port>
      </input>
      <output>
        <port id="107">
          <dim>1</dim>
          <dim>128</dim>
          <dim>38</dim>
          <dim>38</dim>
        </port>
      </output>
      <weights size="294912" offset="1896204"/>
      <biases size="256" offset="2191116"/>
    </layer>
    <layer name="ReLU_stage2_unit3_relu3" type="ReLU" id="53" precision="FP16">
      <input>
        <port id="110">
          <dim>1</dim>
          <dim>128</dim>
          <dim>38</dim>
          <dim>38</dim>
        </port>
      </input>
      <output>
        <port id="109">
          <dim>1</dim>
          <dim>128</dim>
          <dim>38</dim>
          <dim>38</dim>
        </port>
      </output>
    </layer>
    <layer name="Convolution_stage2_unit3_conv3" type="Convolution" id="54" precision="FP16">
      <convolution_data stride-x="1" stride-y="1" pad-x="0" pad-y="0" kernel-x="1" kernel-y="1" output="512" group="1"/>
      <input>
        <port id="112">
          <dim>1</dim>
          <dim>128</dim>
          <dim>38</dim>
          <dim>38</dim>
        </port>
      </input>
      <output>
        <port id="111">
          <dim>1</dim>
          <dim>512</dim>
          <dim>38</dim>
          <dim>38</dim>
        </port>
      </output>
      <weights size="131072" offset="2191372"/>
    </layer>
    <layer name="Eltwise__plus5" type="Eltwise" id="55" precision="FP16">
      <elementwise_data operation=""/>
      <input>
        <port id="114">
          <dim>1</dim>
          <dim>512</dim>
          <dim>38</dim>
          <dim>38</dim>
        </port>
        <port id="115">
          <dim>1</dim>
          <dim>512</dim>
          <dim>38</dim>
          <dim>38</dim>
        </port>
      </input>
      <output>
        <port id="113">
          <dim>1</dim>
          <dim>512</dim>
          <dim>38</dim>
          <dim>38</dim>
        </port>
      </output>
    </layer>
    <layer name="ScaleShift_stage2_unit4_bn1" type="ScaleShift" id="56" precision="FP16">
      <input>
        <port id="117">
          <dim>1</dim>
          <dim>512</dim>
          <dim>38</dim>
          <dim>38</dim>
        </port>
      </input>
      <output>
        <port id="116">
          <dim>1</dim>
          <dim>512</dim>
          <dim>38</dim>
          <dim>38</dim>
        </port>
      </output>
      <weights size="1024" offset="2322444"/>
      <biases size="1024" offset="2323468"/>
    </layer>
    <layer name="ReLU_stage2_unit4_relu1" type="ReLU" id="57" precision="FP16">
      <input>
        <port id="119">
          <dim>1</dim>
          <dim>512</dim>
          <dim>38</dim>
          <dim>38</dim>
        </port>
      </input>
      <output>
        <port id="118">
          <dim>1</dim>
          <dim>512</dim>
          <dim>38</dim>
          <dim>38</dim>
        </port>
      </output>
    </layer>
    <layer name="Convolution_stage2_unit4_conv1" type="Convolution" id="58" precision="FP16">
      <convolution_data stride-x="1" stride-y="1" pad-x="0" pad-y="0" kernel-x="1" kernel-y="1" output="128" group="1"/>
      <input>
        <port id="121">
          <dim>1</dim>
          <dim>512</dim>
          <dim>38</dim>
          <dim>38</dim>
        </port>
      </input>
      <output>
        <port id="120">
          <dim>1</dim>
          <dim>128</dim>
          <dim>38</dim>
          <dim>38</dim>
        </port>
      </output>
      <weights size="131072" offset="2324492"/>
      <biases size="256" offset="2455564"/>
    </layer>
    <layer name="ReLU_stage2_unit4_relu2" type="ReLU" id="59" precision="FP16">
      <input>
        <port id="123">
          <dim>1</dim>
          <dim>128</dim>
          <dim>38</dim>
          <dim>38</dim>
        </port>
      </input>
      <output>
        <port id="122">
          <dim>1</dim>
          <dim>128</dim>
          <dim>38</dim>
          <dim>38</dim>
        </port>
      </output>
    </layer>
    <layer name="Convolution_stage2_unit4_conv2" type="Convolution" id="60" precision="FP16">
      <convolution_data stride-x="1" stride-y="1" pad-x="1" pad-y="1" kernel-x="3" kernel-y="3" output="128" group="1"/>
      <input>
        <port id="125">
          <dim>1</dim>
          <dim>128</dim>
          <dim>38</dim>
          <dim>38</dim>
        </port>
      </input>
      <output>
        <port id="124">
          <dim>1</dim>
          <dim>128</dim>
          <dim>38</dim>
          <dim>38</dim>
        </port>
      </output>
      <weights size="294912" offset="2455820"/>
      <biases size="256" offset="2750732"/>
    </layer>
    <layer name="ReLU_stage2_unit4_relu3" type="ReLU" id="61" precision="FP16">
      <input>
        <port id="127">
          <dim>1</dim>
          <dim>128</dim>
          <dim>38</dim>
          <dim>38</dim>
        </port>
      </input>
      <output>
        <port id="126">
          <dim>1</dim>
          <dim>128</dim>
          <dim>38</dim>
          <dim>38</dim>
        </port>
      </output>
    </layer>
    <layer name="Convolution_stage2_unit4_conv3" type="Convolution" id="62" precision="FP16">
      <convolution_data stride-x="1" stride-y="1" pad-x="0" pad-y="0" kernel-x="1" kernel-y="1" output="512" group="1"/>
      <input>
        <port id="129">
          <dim>1</dim>
          <dim>128</dim>
          <dim>38</dim>
          <dim>38</dim>
        </port>
      </input>
      <output>
        <port id="128">
          <dim>1</dim>
          <dim>512</dim>
          <dim>38</dim>
          <dim>38</dim>
        </port>
      </output>
      <weights size="131072" offset="2750988"/>
    </layer>
    <layer name="Eltwise__plus6" type="Eltwise" id="63" precision="FP16">
      <elementwise_data operation=""/>
      <input>
        <port id="131">
          <dim>1</dim>
          <dim>512</dim>
          <dim>38</dim>
          <dim>38</dim>
        </port>
        <port id="132">
          <dim>1</dim>
          <dim>512</dim>
          <dim>38</dim>
          <dim>38</dim>
        </port>
      </input>
      <output>
        <port id="130">
          <dim>1</dim>
          <dim>512</dim>
          <dim>38</dim>
          <dim>38</dim>
        </port>
      </output>
    </layer>
    <layer name="ScaleShift_stage3_unit1_bn1" type="ScaleShift" id="64" precision="FP16">
      <input>
        <port id="134">
          <dim>1</dim>
          <dim>512</dim>
          <dim>38</dim>
          <dim>38</dim>
        </port>
      </input>
      <output>
        <port id="133">
          <dim>1</dim>
          <dim>512</dim>
          <dim>38</dim>
          <dim>38</dim>
        </port>
      </output>
      <weights size="1024" offset="2882060"/>
      <biases size="1024" offset="2883084"/>
    </layer>
    <layer name="ReLU_stage3_unit1_relu1" type="ReLU" id="65" precision="FP16">
      <input>
        <port id="136">
          <dim>1</dim>
          <dim>512</dim>
          <dim>38</dim>
          <dim>38</dim>
        </port>
      </input>
      <output>
        <port id="135">
          <dim>1</dim>
          <dim>512</dim>
          <dim>38</dim>
          <dim>38</dim>
        </port>
      </output>
    </layer>
    <layer name="Convolution_stage3_unit1_conv1" type="Convolution" id="66" precision="FP16">
      <convolution_data stride-x="1" stride-y="1" pad-x="0" pad-y="0" kernel-x="1" kernel-y="1" output="256" group="1"/>
      <input>
        <port id="138">
          <dim>1</dim>
          <dim>512</dim>
          <dim>38</dim>
          <dim>38</dim>
        </port>
      </input>
      <output>
        <port id="137">
          <dim>1</dim>
          <dim>256</dim>
          <dim>38</dim>
          <dim>38</dim>
        </port>
      </output>
      <weights size="262144" offset="2884108"/>
      <biases size="512" offset="3146252"/>
    </layer>
    <layer name="ReLU_stage3_unit1_relu2" type="ReLU" id="67" precision="FP16">
      <input>
        <port id="140">
          <dim>1</dim>
          <dim>256</dim>
          <dim>38</dim>
          <dim>38</dim>
        </port>
      </input>
      <output>
        <port id="139">
          <dim>1</dim>
          <dim>256</dim>
          <dim>38</dim>
          <dim>38</dim>
        </port>
      </output>
    </layer>
    <layer name="Convolution_stage3_unit1_conv2" type="Convolution" id="68" precision="FP16">
      <convolution_data stride-x="2" stride-y="2" pad-x="1" pad-y="1" kernel-x="3" kernel-y="3" output="256" group="1"/>
      <input>
        <port id="142">
          <dim>1</dim>
          <dim>256</dim>
          <dim>38</dim>
          <dim>38</dim>
        </port>
      </input>
      <output>
        <port id="141">
          <dim>1</dim>
          <dim>256</dim>
          <dim>19</dim>
          <dim>19</dim>
        </port>
      </output>
      <weights size="1179648" offset="3146764"/>
      <biases size="512" offset="4326412"/>
    </layer>
    <layer name="ReLU_stage3_unit1_relu3" type="ReLU" id="69" precision="FP16">
      <input>
        <port id="144">
          <dim>1</dim>
          <dim>256</dim>
          <dim>19</dim>
          <dim>19</dim>
        </port>
      </input>
      <output>
        <port id="143">
          <dim>1</dim>
          <dim>256</dim>
          <dim>19</dim>
          <dim>19</dim>
        </port>
      </output>
    </layer>
    <layer name="Convolution_stage3_unit1_conv3" type="Convolution" id="70" precision="FP16">
      <convolution_data stride-x="1" stride-y="1" pad-x="0" pad-y="0" kernel-x="1" kernel-y="1" output="1024" group="1"/>
      <input>
        <port id="146">
          <dim>1</dim>
          <dim>256</dim>
          <dim>19</dim>
          <dim>19</dim>
        </port>
      </input>
      <output>
        <port id="145">
          <dim>1</dim>
          <dim>1024</dim>
          <dim>19</dim>
          <dim>19</dim>
        </port>
      </output>
      <weights size="524288" offset="4326924"/>
    </layer>
    <layer name="Convolution_stage3_unit1_sc" type="Convolution" id="71" precision="FP16">
      <convolution_data stride-x="2" stride-y="2" pad-x="0" pad-y="0" kernel-x="1" kernel-y="1" output="1024" group="1"/>
      <input>
        <port id="148">
          <dim>1</dim>
          <dim>512</dim>
          <dim>38</dim>
          <dim>38</dim>
        </port>
      </input>
      <output>
        <port id="147">
          <dim>1</dim>
          <dim>1024</dim>
          <dim>19</dim>
          <dim>19</dim>
        </port>
      </output>
      <weights size="1048576" offset="4851212"/>
    </layer>
    <layer name="Eltwise__plus7" type="Eltwise" id="72" precision="FP16">
      <elementwise_data operation=""/>
      <input>
        <port id="150">
          <dim>1</dim>
          <dim>1024</dim>
          <dim>19</dim>
          <dim>19</dim>
        </port>
        <port id="151">
          <dim>1</dim>
          <dim>1024</dim>
          <dim>19</dim>
          <dim>19</dim>
        </port>
      </input>
      <output>
        <port id="149">
          <dim>1</dim>
          <dim>1024</dim>
          <dim>19</dim>
          <dim>19</dim>
        </port>
      </output>
    </layer>
    <layer name="ScaleShift_stage3_unit2_bn1" type="ScaleShift" id="73" precision="FP16">
      <input>
        <port id="153">
          <dim>1</dim>
          <dim>1024</dim>
          <dim>19</dim>
          <dim>19</dim>
        </port>
      </input>
      <output>
        <port id="152">
          <dim>1</dim>
          <dim>1024</dim>
          <dim>19</dim>
          <dim>19</dim>
        </port>
      </output>
      <weights size="2048" offset="5899788"/>
      <biases size="2048" offset="5901836"/>
    </layer>
    <layer name="ReLU_stage3_unit2_relu1" type="ReLU" id="74" precision="FP16">
      <input>
        <port id="155">
          <dim>1</dim>
          <dim>1024</dim>
          <dim>19</dim>
          <dim>19</dim>
        </port>
      </input>
      <output>
        <port id="154">
          <dim>1</dim>
          <dim>1024</dim>
          <dim>19</dim>
          <dim>19</dim>
        </port>
      </output>
    </layer>
    <layer name="Convolution_stage3_unit2_conv1" type="Convolution" id="75" precision="FP16">
      <convolution_data stride-x="1" stride-y="1" pad-x="0" pad-y="0" kernel-x="1" kernel-y="1" output="256" group="1"/>
      <input>
        <port id="157">
          <dim>1</dim>
          <dim>1024</dim>
          <dim>19</dim>
          <dim>19</dim>
        </port>
      </input>
      <output>
        <port id="156">
          <dim>1</dim>
          <dim>256</dim>
          <dim>19</dim>
          <dim>19</dim>
        </port>
      </output>
      <weights size="524288" offset="5903884"/>
      <biases size="512" offset="6428172"/>
    </layer>
    <layer name="ReLU_stage3_unit2_relu2" type="ReLU" id="76" precision="FP16">
      <input>
        <port id="159">
          <dim>1</dim>
          <dim>256</dim>
          <dim>19</dim>
          <dim>19</dim>
        </port>
      </input>
      <output>
        <port id="158">
          <dim>1</dim>
          <dim>256</dim>
          <dim>19</dim>
          <dim>19</dim>
        </port>
      </output>
    </layer>
    <layer name="Convolution_stage3_unit2_conv2" type="Convolution" id="77" precision="FP16">
      <convolution_data stride-x="1" stride-y="1" pad-x="1" pad-y="1" kernel-x="3" kernel-y="3" output="256" group="1"/>
      <input>
        <port id="161">
          <dim>1</dim>
          <dim>256</dim>
          <dim>19</dim>
          <dim>19</dim>
        </port>
      </input>
      <output>
        <port id="160">
          <dim>1</dim>
          <dim>256</dim>
          <dim>19</dim>
          <dim>19</dim>
        </port>
      </output>
      <weights size="1179648" offset="6428684"/>
      <biases size="512" offset="7608332"/>
    </layer>
    <layer name="ReLU_stage3_unit2_relu3" type="ReLU" id="78" precision="FP16">
      <input>
        <port id="163">
          <dim>1</dim>
          <dim>256</dim>
          <dim>19</dim>
          <dim>19</dim>
        </port>
      </input>
      <output>
        <port id="162">
          <dim>1</dim>
          <dim>256</dim>
          <dim>19</dim>
          <dim>19</dim>
        </port>
      </output>
    </layer>
    <layer name="Convolution_stage3_unit2_conv3" type="Convolution" id="79" precision="FP16">
      <convolution_data stride-x="1" stride-y="1" pad-x="0" pad-y="0" kernel-x="1" kernel-y="1" output="1024" group="1"/>
      <input>
        <port id="165">
          <dim>1</dim>
          <dim>256</dim>
          <dim>19</dim>
          <dim>19</dim>
        </port>
      </input>
      <output>
        <port id="164">
          <dim>1</dim>
          <dim>1024</dim>
          <dim>19</dim>
          <dim>19</dim>
        </port>
      </output>
      <weights size="524288" offset="7608844"/>
    </layer>
    <layer name="Eltwise__plus8" type="Eltwise" id="80" precision="FP16">
      <elementwise_data operation=""/>
      <input>
        <port id="167">
          <dim>1</dim>
          <dim>1024</dim>
          <dim>19</dim>
          <dim>19</dim>
        </port>
        <port id="168">
          <dim>1</dim>
          <dim>1024</dim>
          <dim>19</dim>
          <dim>19</dim>
        </port>
      </input>
      <output>
        <port id="166">
          <dim>1</dim>
          <dim>1024</dim>
          <dim>19</dim>
          <dim>19</dim>
        </port>
      </output>
    </layer>
    <layer name="ScaleShift_stage3_unit3_bn1" type="ScaleShift" id="81" precision="FP16">
      <input>
        <port id="170">
          <dim>1</dim>
          <dim>1024</dim>
          <dim>19</dim>
          <dim>19</dim>
        </port>
      </input>
      <output>
        <port id="169">
          <dim>1</dim>
          <dim>1024</dim>
          <dim>19</dim>
          <dim>19</dim>
        </port>
      </output>
      <weights size="2048" offset="8133132"/>
      <biases size="2048" offset="8135180"/>
    </layer>
    <layer name="ReLU_stage3_unit3_relu1" type="ReLU" id="82" precision="FP16">
      <input>
        <port id="172">
          <dim>1</dim>
          <dim>1024</dim>
          <dim>19</dim>
          <dim>19</dim>
        </port>
      </input>
      <output>
        <port id="171">
          <dim>1</dim>
          <dim>1024</dim>
          <dim>19</dim>
          <dim>19</dim>
        </port>
      </output>
    </layer>
    <layer name="Convolution_stage3_unit3_conv1" type="Convolution" id="83" precision="FP16">
      <convolution_data stride-x="1" stride-y="1" pad-x="0" pad-y="0" kernel-x="1" kernel-y="1" output="256" group="1"/>
      <input>
        <port id="174">
          <dim>1</dim>
          <dim>1024</dim>
          <dim>19</dim>
          <dim>19</dim>
        </port>
      </input>
      <output>
        <port id="173">
          <dim>1</dim>
          <dim>256</dim>
          <dim>19</dim>
          <dim>19</dim>
        </port>
      </output>
      <weights size="524288" offset="8137228"/>
      <biases size="512" offset="8661516"/>
    </layer>
    <layer name="ReLU_stage3_unit3_relu2" type="ReLU" id="84" precision="FP16">
      <input>
        <port id="176">
          <dim>1</dim>
          <dim>256</dim>
          <dim>19</dim>
          <dim>19</dim>
        </port>
      </input>
      <output>
        <port id="175">
          <dim>1</dim>
          <dim>256</dim>
          <dim>19</dim>
          <dim>19</dim>
        </port>
      </output>
    </layer>
    <layer name="Convolution_stage3_unit3_conv2" type="Convolution" id="85" precision="FP16">
      <convolution_data stride-x="1" stride-y="1" pad-x="1" pad-y="1" kernel-x="3" kernel-y="3" output="256" group="1"/>
      <input>
        <port id="178">
          <dim>1</dim>
          <dim>256</dim>
          <dim>19</dim>
          <dim>19</dim>
        </port>
      </input>
      <output>
        <port id="177">
          <dim>1</dim>
          <dim>256</dim>
          <dim>19</dim>
          <dim>19</dim>
        </port>
      </output>
      <weights size="1179648" offset="8662028"/>
      <biases size="512" offset="9841676"/>
    </layer>
    <layer name="ReLU_stage3_unit3_relu3" type="ReLU" id="86" precision="FP16">
      <input>
        <port id="180">
          <dim>1</dim>
          <dim>256</dim>
          <dim>19</dim>
          <dim>19</dim>
        </port>
      </input>
      <output>
        <port id="179">
          <dim>1</dim>
          <dim>256</dim>
          <dim>19</dim>
          <dim>19</dim>
        </port>
      </output>
    </layer>
    <layer name="Convolution_stage3_unit3_conv3" type="Convolution" id="87" precision="FP16">
      <convolution_data stride-x="1" stride-y="1" pad-x="0" pad-y="0" kernel-x="1" kernel-y="1" output="1024" group="1"/>
      <input>
        <port id="182">
          <dim>1</dim>
          <dim>256</dim>
          <dim>19</dim>
          <dim>19</dim>
        </port>
      </input>
      <output>
        <port id="181">
          <dim>1</dim>
          <dim>1024</dim>
          <dim>19</dim>
          <dim>19</dim>
        </port>
      </output>
      <weights size="524288" offset="9842188"/>
    </layer>
    <layer name="Eltwise__plus9" type="Eltwise" id="88" precision="FP16">
      <elementwise_data operation=""/>
      <input>
        <port id="184">
          <dim>1</dim>
          <dim>1024</dim>
          <dim>19</dim>
          <dim>19</dim>
        </port>
        <port id="185">
          <dim>1</dim>
          <dim>1024</dim>
          <dim>19</dim>
          <dim>19</dim>
        </port>
      </input>
      <output>
        <port id="183">
          <dim>1</dim>
          <dim>1024</dim>
          <dim>19</dim>
          <dim>19</dim>
        </port>
      </output>
    </layer>
    <layer name="ScaleShift_stage3_unit4_bn1" type="ScaleShift" id="89" precision="FP16">
      <input>
        <port id="187">
          <dim>1</dim>
          <dim>1024</dim>
          <dim>19</dim>
          <dim>19</dim>
        </port>
      </input>
      <output>
        <port id="186">
          <dim>1</dim>
          <dim>1024</dim>
          <dim>19</dim>
          <dim>19</dim>
        </port>
      </output>
      <weights size="2048" offset="10366476"/>
      <biases size="2048" offset="10368524"/>
    </layer>
    <layer name="ReLU_stage3_unit4_relu1" type="ReLU" id="90" precision="FP16">
      <input>
        <port id="189">
          <dim>1</dim>
          <dim>1024</dim>
          <dim>19</dim>
          <dim>19</dim>
        </port>
      </input>
      <output>
        <port id="188">
          <dim>1</dim>
          <dim>1024</dim>
          <dim>19</dim>
          <dim>19</dim>
        </port>
      </output>
    </layer>
    <layer name="Convolution_stage3_unit4_conv1" type="Convolution" id="91" precision="FP16">
      <convolution_data stride-x="1" stride-y="1" pad-x="0" pad-y="0" kernel-x="1" kernel-y="1" output="256" group="1"/>
      <input>
        <port id="191">
          <dim>1</dim>
          <dim>1024</dim>
          <dim>19</dim>
          <dim>19</dim>
        </port>
      </input>
      <output>
        <port id="190">
          <dim>1</dim>
          <dim>256</dim>
          <dim>19</dim>
          <dim>19</dim>
        </port>
      </output>
      <weights size="524288" offset="10370572"/>
      <biases size="512" offset="10894860"/>
    </layer>
    <layer name="ReLU_stage3_unit4_relu2" type="ReLU" id="92" precision="FP16">
      <input>
        <port id="193">
          <dim>1</dim>
          <dim>256</dim>
          <dim>19</dim>
          <dim>19</dim>
        </port>
      </input>
      <output>
        <port id="192">
          <dim>1</dim>
          <dim>256</dim>
          <dim>19</dim>
          <dim>19</dim>
        </port>
      </output>
    </layer>
    <layer name="Convolution_stage3_unit4_conv2" type="Convolution" id="93" precision="FP16">
      <convolution_data stride-x="1" stride-y="1" pad-x="1" pad-y="1" kernel-x="3" kernel-y="3" output="256" group="1"/>
      <input>
        <port id="195">
          <dim>1</dim>
          <dim>256</dim>
          <dim>19</dim>
          <dim>19</dim>
        </port>
      </input>
      <output>
        <port id="194">
          <dim>1</dim>
          <dim>256</dim>
          <dim>19</dim>
          <dim>19</dim>
        </port>
      </output>
      <weights size="1179648" offset="10895372"/>
      <biases size="512" offset="12075020"/>
    </layer>
    <layer name="ReLU_stage3_unit4_relu3" type="ReLU" id="94" precision="FP16">
      <input>
        <port id="197">
          <dim>1</dim>
          <dim>256</dim>
          <dim>19</dim>
          <dim>19</dim>
        </port>
      </input>
      <output>
        <port id="196">
          <dim>1</dim>
          <dim>256</dim>
          <dim>19</dim>
          <dim>19</dim>
        </port>
      </output>
    </layer>
    <layer name="Convolution_stage3_unit4_conv3" type="Convolution" id="95" precision="FP16">
      <convolution_data stride-x="1" stride-y="1" pad-x="0" pad-y="0" kernel-x="1" kernel-y="1" output="1024" group="1"/>
      <input>
        <port id="199">
          <dim>1</dim>
          <dim>256</dim>
          <dim>19</dim>
          <dim>19</dim>
        </port>
      </input>
      <output>
        <port id="198">
          <dim>1</dim>
          <dim>1024</dim>
          <dim>19</dim>
          <dim>19</dim>
        </port>
      </output>
      <weights size="524288" offset="12075532"/>
    </layer>
    <layer name="Eltwise__plus10" type="Eltwise" id="96" precision="FP16">
      <elementwise_data operation=""/>
      <input>
        <port id="201">
          <dim>1</dim>
          <dim>1024</dim>
          <dim>19</dim>
          <dim>19</dim>
        </port>
        <port id="202">
          <dim>1</dim>
          <dim>1024</dim>
          <dim>19</dim>
          <dim>19</dim>
        </port>
      </input>
      <output>
        <port id="200">
          <dim>1</dim>
          <dim>1024</dim>
          <dim>19</dim>
          <dim>19</dim>
        </port>
      </output>
    </layer>
    <layer name="ScaleShift_stage3_unit5_bn1" type="ScaleShift" id="97" precision="FP16">
      <input>
        <port id="204">
          <dim>1</dim>
          <dim>1024</dim>
          <dim>19</dim>
          <dim>19</dim>
        </port>
      </input>
      <output>
        <port id="203">
          <dim>1</dim>
          <dim>1024</dim>
          <dim>19</dim>
          <dim>19</dim>
        </port>
      </output>
      <weights size="2048" offset="12599820"/>
      <biases size="2048" offset="12601868"/>
    </layer>
    <layer name="ReLU_stage3_unit5_relu1" type="ReLU" id="98" precision="FP16">
      <input>
        <port id="206">
          <dim>1</dim>
          <dim>1024</dim>
          <dim>19</dim>
          <dim>19</dim>
        </port>
      </input>
      <output>
        <port id="205">
          <dim>1</dim>
          <dim>1024</dim>
          <dim>19</dim>
          <dim>19</dim>
        </port>
      </output>
    </layer>
    <layer name="Convolution_stage3_unit5_conv1" type="Convolution" id="99" precision="FP16">
      <convolution_data stride-x="1" stride-y="1" pad-x="0" pad-y="0" kernel-x="1" kernel-y="1" output="256" group="1"/>
      <input>
        <port id="208">
          <dim>1</dim>
          <dim>1024</dim>
          <dim>19</dim>
          <dim>19</dim>
        </port>
      </input>
      <output>
        <port id="207">
          <dim>1</dim>
          <dim>256</dim>
          <dim>19</dim>
          <dim>19</dim>
        </port>
      </output>
      <weights size="524288" offset="12603916"/>
      <biases size="512" offset="13128204"/>
    </layer>
    <layer name="ReLU_stage3_unit5_relu2" type="ReLU" id="100" precision="FP16">
      <input>
        <port id="210">
          <dim>1</dim>
          <dim>256</dim>
          <dim>19</dim>
          <dim>19</dim>
        </port>
      </input>
      <output>
        <port id="209">
          <dim>1</dim>
          <dim>256</dim>
          <dim>19</dim>
          <dim>19</dim>
        </port>
      </output>
    </layer>
    <layer name="Convolution_stage3_unit5_conv2" type="Convolution" id="101" precision="FP16">
      <convolution_data stride-x="1" stride-y="1" pad-x="1" pad-y="1" kernel-x="3" kernel-y="3" output="256" group="1"/>
      <input>
        <port id="212">
          <dim>1</dim>
          <dim>256</dim>
          <dim>19</dim>
          <dim>19</dim>
        </port>
      </input>
      <output>
        <port id="211">
          <dim>1</dim>
          <dim>256</dim>
          <dim>19</dim>
          <dim>19</dim>
        </port>
      </output>
      <weights size="1179648" offset="13128716"/>
      <biases size="512" offset="14308364"/>
    </layer>
    <layer name="ReLU_stage3_unit5_relu3" type="ReLU" id="102" precision="FP16">
      <input>
        <port id="214">
          <dim>1</dim>
          <dim>256</dim>
          <dim>19</dim>
          <dim>19</dim>
        </port>
      </input>
      <output>
        <port id="213">
          <dim>1</dim>
          <dim>256</dim>
          <dim>19</dim>
          <dim>19</dim>
        </port>
      </output>
    </layer>
    <layer name="Convolution_stage3_unit5_conv3" type="Convolution" id="103" precision="FP16">
      <convolution_data stride-x="1" stride-y="1" pad-x="0" pad-y="0" kernel-x="1" kernel-y="1" output="1024" group="1"/>
      <input>
        <port id="216">
          <dim>1</dim>
          <dim>256</dim>
          <dim>19</dim>
          <dim>19</dim>
        </port>
      </input>
      <output>
        <port id="215">
          <dim>1</dim>
          <dim>1024</dim>
          <dim>19</dim>
          <dim>19</dim>
        </port>
      </output>
      <weights size="524288" offset="14308876"/>
    </layer>
    <layer name="Eltwise__plus11" type="Eltwise" id="104" precision="FP16">
      <elementwise_data operation=""/>
      <input>
        <port id="218">
          <dim>1</dim>
          <dim>1024</dim>
          <dim>19</dim>
          <dim>19</dim>
        </port>
        <port id="219">
          <dim>1</dim>
          <dim>1024</dim>
          <dim>19</dim>
          <dim>19</dim>
        </port>
      </input>
      <output>
        <port id="217">
          <dim>1</dim>
          <dim>1024</dim>
          <dim>19</dim>
          <dim>19</dim>
        </port>
      </output>
    </layer>
    <layer name="ScaleShift_stage3_unit6_bn1" type="ScaleShift" id="105" precision="FP16">
      <input>
        <port id="221">
          <dim>1</dim>
          <dim>1024</dim>
          <dim>19</dim>
          <dim>19</dim>
        </port>
      </input>
      <output>
        <port id="220">
          <dim>1</dim>
          <dim>1024</dim>
          <dim>19</dim>
          <dim>19</dim>
        </port>
      </output>
      <weights size="2048" offset="14833164"/>
      <biases size="2048" offset="14835212"/>
    </layer>
    <layer name="ReLU_stage3_unit6_relu1" type="ReLU" id="106" precision="FP16">
      <input>
        <port id="223">
          <dim>1</dim>
          <dim>1024</dim>
          <dim>19</dim>
          <dim>19</dim>
        </port>
      </input>
      <output>
        <port id="222">
          <dim>1</dim>
          <dim>1024</dim>
          <dim>19</dim>
          <dim>19</dim>
        </port>
      </output>
    </layer>
    <layer name="Convolution_stage3_unit6_conv1" type="Convolution" id="107" precision="FP16">
      <convolution_data stride-x="1" stride-y="1" pad-x="0" pad-y="0" kernel-x="1" kernel-y="1" output="256" group="1"/>
      <input>
        <port id="225">
          <dim>1</dim>
          <dim>1024</dim>
          <dim>19</dim>
          <dim>19</dim>
        </port>
      </input>
      <output>
        <port id="224">
          <dim>1</dim>
          <dim>256</dim>
          <dim>19</dim>
          <dim>19</dim>
        </port>
      </output>
      <weights size="524288" offset="14837260"/>
      <biases size="512" offset="15361548"/>
    </layer>
    <layer name="ReLU_stage3_unit6_relu2" type="ReLU" id="108" precision="FP16">
      <input>
        <port id="227">
          <dim>1</dim>
          <dim>256</dim>
          <dim>19</dim>
          <dim>19</dim>
        </port>
      </input>
      <output>
        <port id="226">
          <dim>1</dim>
          <dim>256</dim>
          <dim>19</dim>
          <dim>19</dim>
        </port>
      </output>
    </layer>
    <layer name="Convolution_stage3_unit6_conv2" type="Convolution" id="109" precision="FP16">
      <convolution_data stride-x="1" stride-y="1" pad-x="1" pad-y="1" kernel-x="3" kernel-y="3" output="256" group="1"/>
      <input>
        <port id="229">
          <dim>1</dim>
          <dim>256</dim>
          <dim>19</dim>
          <dim>19</dim>
        </port>
      </input>
      <output>
        <port id="228">
          <dim>1</dim>
          <dim>256</dim>
          <dim>19</dim>
          <dim>19</dim>
        </port>
      </output>
      <weights size="1179648" offset="15362060"/>
      <biases size="512" offset="16541708"/>
    </layer>
    <layer name="ReLU_stage3_unit6_relu3" type="ReLU" id="110" precision="FP16">
      <input>
        <port id="231">
          <dim>1</dim>
          <dim>256</dim>
          <dim>19</dim>
          <dim>19</dim>
        </port>
      </input>
      <output>
        <port id="230">
          <dim>1</dim>
          <dim>256</dim>
          <dim>19</dim>
          <dim>19</dim>
        </port>
      </output>
    </layer>
    <layer name="Convolution_stage3_unit6_conv3" type="Convolution" id="111" precision="FP16">
      <convolution_data stride-x="1" stride-y="1" pad-x="0" pad-y="0" kernel-x="1" kernel-y="1" output="1024" group="1"/>
      <input>
        <port id="233">
          <dim>1</dim>
          <dim>256</dim>
          <dim>19</dim>
          <dim>19</dim>
        </port>
      </input>
      <output>
        <port id="232">
          <dim>1</dim>
          <dim>1024</dim>
          <dim>19</dim>
          <dim>19</dim>
        </port>
      </output>
      <weights size="524288" offset="16542220"/>
    </layer>
    <layer name="Eltwise__plus12" type="Eltwise" id="112" precision="FP16">
      <elementwise_data operation=""/>
      <input>
        <port id="235">
          <dim>1</dim>
          <dim>1024</dim>
          <dim>19</dim>
          <dim>19</dim>
        </port>
        <port id="236">
          <dim>1</dim>
          <dim>1024</dim>
          <dim>19</dim>
          <dim>19</dim>
        </port>
      </input>
      <output>
        <port id="234">
          <dim>1</dim>
          <dim>1024</dim>
          <dim>19</dim>
          <dim>19</dim>
        </port>
      </output>
    </layer>
    <layer name="ScaleShift_stage3_unit7_bn1" type="ScaleShift" id="113" precision="FP16">
      <input>
        <port id="238">
          <dim>1</dim>
          <dim>1024</dim>
          <dim>19</dim>
          <dim>19</dim>
        </port>
      </input>
      <output>
        <port id="237">
          <dim>1</dim>
          <dim>1024</dim>
          <dim>19</dim>
          <dim>19</dim>
        </port>
      </output>
      <weights size="2048" offset="17066508"/>
      <biases size="2048" offset="17068556"/>
    </layer>
    <layer name="ReLU_stage3_unit7_relu1" type="ReLU" id="114" precision="FP16">
      <input>
        <port id="240">
          <dim>1</dim>
          <dim>1024</dim>
          <dim>19</dim>
          <dim>19</dim>
        </port>
      </input>
      <output>
        <port id="239">
          <dim>1</dim>
          <dim>1024</dim>
          <dim>19</dim>
          <dim>19</dim>
        </port>
      </output>
    </layer>
    <layer name="Convolution_stage3_unit7_conv1" type="Convolution" id="115" precision="FP16">
      <convolution_data stride-x="1" stride-y="1" pad-x="0" pad-y="0" kernel-x="1" kernel-y="1" output="256" group="1"/>
      <input>
        <port id="242">
          <dim>1</dim>
          <dim>1024</dim>
          <dim>19</dim>
          <dim>19</dim>
        </port>
      </input>
      <output>
        <port id="241">
          <dim>1</dim>
          <dim>256</dim>
          <dim>19</dim>
          <dim>19</dim>
        </port>
      </output>
      <weights size="524288" offset="17070604"/>
      <biases size="512" offset="17594892"/>
    </layer>
    <layer name="ReLU_stage3_unit7_relu2" type="ReLU" id="116" precision="FP16">
      <input>
        <port id="244">
          <dim>1</dim>
          <dim>256</dim>
          <dim>19</dim>
          <dim>19</dim>
        </port>
      </input>
      <output>
        <port id="243">
          <dim>1</dim>
          <dim>256</dim>
          <dim>19</dim>
          <dim>19</dim>
        </port>
      </output>
    </layer>
    <layer name="Convolution_stage3_unit7_conv2" type="Convolution" id="117" precision="FP16">
      <convolution_data stride-x="1" stride-y="1" pad-x="1" pad-y="1" kernel-x="3" kernel-y="3" output="256" group="1"/>
      <input>
        <port id="246">
          <dim>1</dim>
          <dim>256</dim>
          <dim>19</dim>
          <dim>19</dim>
        </port>
      </input>
      <output>
        <port id="245">
          <dim>1</dim>
          <dim>256</dim>
          <dim>19</dim>
          <dim>19</dim>
        </port>
      </output>
      <weights size="1179648" offset="17595404"/>
      <biases size="512" offset="18775052"/>
    </layer>
    <layer name="ReLU_stage3_unit7_relu3" type="ReLU" id="118" precision="FP16">
      <input>
        <port id="248">
          <dim>1</dim>
          <dim>256</dim>
          <dim>19</dim>
          <dim>19</dim>
        </port>
      </input>
      <output>
        <port id="247">
          <dim>1</dim>
          <dim>256</dim>
          <dim>19</dim>
          <dim>19</dim>
        </port>
      </output>
    </layer>
    <layer name="Convolution_stage3_unit7_conv3" type="Convolution" id="119" precision="FP16">
      <convolution_data stride-x="1" stride-y="1" pad-x="0" pad-y="0" kernel-x="1" kernel-y="1" output="1024" group="1"/>
      <input>
        <port id="250">
          <dim>1</dim>
          <dim>256</dim>
          <dim>19</dim>
          <dim>19</dim>
        </port>
      </input>
      <output>
        <port id="249">
          <dim>1</dim>
          <dim>1024</dim>
          <dim>19</dim>
          <dim>19</dim>
        </port>
      </output>
      <weights size="524288" offset="18775564"/>
    </layer>
    <layer name="Eltwise__plus13" type="Eltwise" id="120" precision="FP16">
      <elementwise_data operation=""/>
      <input>
        <port id="252">
          <dim>1</dim>
          <dim>1024</dim>
          <dim>19</dim>
          <dim>19</dim>
        </port>
        <port id="253">
          <dim>1</dim>
          <dim>1024</dim>
          <dim>19</dim>
          <dim>19</dim>
        </port>
      </input>
      <output>
        <port id="251">
          <dim>1</dim>
          <dim>1024</dim>
          <dim>19</dim>
          <dim>19</dim>
        </port>
      </output>
    </layer>
    <layer name="ScaleShift_stage3_unit8_bn1" type="ScaleShift" id="121" precision="FP16">
      <input>
        <port id="255">
          <dim>1</dim>
          <dim>1024</dim>
          <dim>19</dim>
          <dim>19</dim>
        </port>
      </input>
      <output>
        <port id="254">
          <dim>1</dim>
          <dim>1024</dim>
          <dim>19</dim>
          <dim>19</dim>
        </port>
      </output>
      <weights size="2048" offset="19299852"/>
      <biases size="2048" offset="19301900"/>
    </layer>
    <layer name="ReLU_stage3_unit8_relu1" type="ReLU" id="122" precision="FP16">
      <input>
        <port id="257">
          <dim>1</dim>
          <dim>1024</dim>
          <dim>19</dim>
          <dim>19</dim>
        </port>
      </input>
      <output>
        <port id="256">
          <dim>1</dim>
          <dim>1024</dim>
          <dim>19</dim>
          <dim>19</dim>
        </port>
      </output>
    </layer>
    <layer name="Convolution_stage3_unit8_conv1" type="Convolution" id="123" precision="FP16">
      <convolution_data stride-x="1" stride-y="1" pad-x="0" pad-y="0" kernel-x="1" kernel-y="1" output="256" group="1"/>
      <input>
        <port id="259">
          <dim>1</dim>
          <dim>1024</dim>
          <dim>19</dim>
          <dim>19</dim>
        </port>
      </input>
      <output>
        <port id="258">
          <dim>1</dim>
          <dim>256</dim>
          <dim>19</dim>
          <dim>19</dim>
        </port>
      </output>
      <weights size="524288" offset="19303948"/>
      <biases size="512" offset="19828236"/>
    </layer>
    <layer name="ReLU_stage3_unit8_relu2" type="ReLU" id="124" precision="FP16">
      <input>
        <port id="261">
          <dim>1</dim>
          <dim>256</dim>
          <dim>19</dim>
          <dim>19</dim>
        </port>
      </input>
      <output>
        <port id="260">
          <dim>1</dim>
          <dim>256</dim>
          <dim>19</dim>
          <dim>19</dim>
        </port>
      </output>
    </layer>
    <layer name="Convolution_stage3_unit8_conv2" type="Convolution" id="125" precision="FP16">
      <convolution_data stride-x="1" stride-y="1" pad-x="1" pad-y="1" kernel-x="3" kernel-y="3" output="256" group="1"/>
      <input>
        <port id="263">
          <dim>1</dim>
          <dim>256</dim>
          <dim>19</dim>
          <dim>19</dim>
        </port>
      </input>
      <output>
        <port id="262">
          <dim>1</dim>
          <dim>256</dim>
          <dim>19</dim>
          <dim>19</dim>
        </port>
      </output>
      <weights size="1179648" offset="19828748"/>
      <biases size="512" offset="21008396"/>
    </layer>
    <layer name="ReLU_stage3_unit8_relu3" type="ReLU" id="126" precision="FP16">
      <input>
        <port id="265">
          <dim>1</dim>
          <dim>256</dim>
          <dim>19</dim>
          <dim>19</dim>
        </port>
      </input>
      <output>
        <port id="264">
          <dim>1</dim>
          <dim>256</dim>
          <dim>19</dim>
          <dim>19</dim>
        </port>
      </output>
    </layer>
    <layer name="Convolution_stage3_unit8_conv3" type="Convolution" id="127" precision="FP16">
      <convolution_data stride-x="1" stride-y="1" pad-x="0" pad-y="0" kernel-x="1" kernel-y="1" output="1024" group="1"/>
      <input>
        <port id="267">
          <dim>1</dim>
          <dim>256</dim>
          <dim>19</dim>
          <dim>19</dim>
        </port>
      </input>
      <output>
        <port id="266">
          <dim>1</dim>
          <dim>1024</dim>
          <dim>19</dim>
          <dim>19</dim>
        </port>
      </output>
      <weights size="524288" offset="21008908"/>
    </layer>
    <layer name="Eltwise__plus14" type="Eltwise" id="128" precision="FP16">
      <elementwise_data operation=""/>
      <input>
        <port id="269">
          <dim>1</dim>
          <dim>1024</dim>
          <dim>19</dim>
          <dim>19</dim>
        </port>
        <port id="270">
          <dim>1</dim>
          <dim>1024</dim>
          <dim>19</dim>
          <dim>19</dim>
        </port>
      </input>
      <output>
        <port id="268">
          <dim>1</dim>
          <dim>1024</dim>
          <dim>19</dim>
          <dim>19</dim>
        </port>
      </output>
    </layer>
    <layer name="ScaleShift_stage3_unit9_bn1" type="ScaleShift" id="129" precision="FP16">
      <input>
        <port id="272">
          <dim>1</dim>
          <dim>1024</dim>
          <dim>19</dim>
          <dim>19</dim>
        </port>
      </input>
      <output>
        <port id="271">
          <dim>1</dim>
          <dim>1024</dim>
          <dim>19</dim>
          <dim>19</dim>
        </port>
      </output>
      <weights size="2048" offset="21533196"/>
      <biases size="2048" offset="21535244"/>
    </layer>
    <layer name="ReLU_stage3_unit9_relu1" type="ReLU" id="130" precision="FP16">
      <input>
        <port id="274">
          <dim>1</dim>
          <dim>1024</dim>
          <dim>19</dim>
          <dim>19</dim>
        </port>
      </input>
      <output>
        <port id="273">
          <dim>1</dim>
          <dim>1024</dim>
          <dim>19</dim>
          <dim>19</dim>
        </port>
      </output>
    </layer>
    <layer name="Convolution_stage3_unit9_conv1" type="Convolution" id="131" precision="FP16">
      <convolution_data stride-x="1" stride-y="1" pad-x="0" pad-y="0" kernel-x="1" kernel-y="1" output="256" group="1"/>
      <input>
        <port id="276">
          <dim>1</dim>
          <dim>1024</dim>
          <dim>19</dim>
          <dim>19</dim>
        </port>
      </input>
      <output>
        <port id="275">
          <dim>1</dim>
          <dim>256</dim>
          <dim>19</dim>
          <dim>19</dim>
        </port>
      </output>
      <weights size="524288" offset="21537292"/>
      <biases size="512" offset="22061580"/>
    </layer>
    <layer name="ReLU_stage3_unit9_relu2" type="ReLU" id="132" precision="FP16">
      <input>
        <port id="278">
          <dim>1</dim>
          <dim>256</dim>
          <dim>19</dim>
          <dim>19</dim>
        </port>
      </input>
      <output>
        <port id="277">
          <dim>1</dim>
          <dim>256</dim>
          <dim>19</dim>
          <dim>19</dim>
        </port>
      </output>
    </layer>
    <layer name="Convolution_stage3_unit9_conv2" type="Convolution" id="133" precision="FP16">
      <convolution_data stride-x="1" stride-y="1" pad-x="1" pad-y="1" kernel-x="3" kernel-y="3" output="256" group="1"/>
      <input>
        <port id="280">
          <dim>1</dim>
          <dim>256</dim>
          <dim>19</dim>
          <dim>19</dim>
        </port>
      </input>
      <output>
        <port id="279">
          <dim>1</dim>
          <dim>256</dim>
          <dim>19</dim>
          <dim>19</dim>
        </port>
      </output>
      <weights size="1179648" offset="22062092"/>
      <biases size="512" offset="23241740"/>
    </layer>
    <layer name="ReLU_stage3_unit9_relu3" type="ReLU" id="134" precision="FP16">
      <input>
        <port id="282">
          <dim>1</dim>
          <dim>256</dim>
          <dim>19</dim>
          <dim>19</dim>
        </port>
      </input>
      <output>
        <port id="281">
          <dim>1</dim>
          <dim>256</dim>
          <dim>19</dim>
          <dim>19</dim>
        </port>
      </output>
    </layer>
    <layer name="Convolution_stage3_unit9_conv3" type="Convolution" id="135" precision="FP16">
      <convolution_data stride-x="1" stride-y="1" pad-x="0" pad-y="0" kernel-x="1" kernel-y="1" output="1024" group="1"/>
      <input>
        <port id="284">
          <dim>1</dim>
          <dim>256</dim>
          <dim>19</dim>
          <dim>19</dim>
        </port>
      </input>
      <output>
        <port id="283">
          <dim>1</dim>
          <dim>1024</dim>
          <dim>19</dim>
          <dim>19</dim>
        </port>
      </output>
      <weights size="524288" offset="23242252"/>
    </layer>
    <layer name="Eltwise__plus15" type="Eltwise" id="136" precision="FP16">
      <elementwise_data operation=""/>
      <input>
        <port id="286">
          <dim>1</dim>
          <dim>1024</dim>
          <dim>19</dim>
          <dim>19</dim>
        </port>
        <port id="287">
          <dim>1</dim>
          <dim>1024</dim>
          <dim>19</dim>
          <dim>19</dim>
        </port>
      </input>
      <output>
        <port id="285">
          <dim>1</dim>
          <dim>1024</dim>
          <dim>19</dim>
          <dim>19</dim>
        </port>
      </output>
    </layer>
    <layer name="ScaleShift_stage3_unit10_bn1" type="ScaleShift" id="137" precision="FP16">
      <input>
        <port id="289">
          <dim>1</dim>
          <dim>1024</dim>
          <dim>19</dim>
          <dim>19</dim>
        </port>
      </input>
      <output>
        <port id="288">
          <dim>1</dim>
          <dim>1024</dim>
          <dim>19</dim>
          <dim>19</dim>
        </port>
      </output>
      <weights size="2048" offset="23766540"/>
      <biases size="2048" offset="23768588"/>
    </layer>
    <layer name="ReLU_stage3_unit10_relu1" type="ReLU" id="138" precision="FP16">
      <input>
        <port id="291">
          <dim>1</dim>
          <dim>1024</dim>
          <dim>19</dim>
          <dim>19</dim>
        </port>
      </input>
      <output>
        <port id="290">
          <dim>1</dim>
          <dim>1024</dim>
          <dim>19</dim>
          <dim>19</dim>
        </port>
      </output>
    </layer>
    <layer name="Convolution_stage3_unit10_conv1" type="Convolution" id="139" precision="FP16">
      <convolution_data stride-x="1" stride-y="1" pad-x="0" pad-y="0" kernel-x="1" kernel-y="1" output="256" group="1"/>
      <input>
        <port id="293">
          <dim>1</dim>
          <dim>1024</dim>
          <dim>19</dim>
          <dim>19</dim>
        </port>
      </input>
      <output>
        <port id="292">
          <dim>1</dim>
          <dim>256</dim>
          <dim>19</dim>
          <dim>19</dim>
        </port>
      </output>
      <weights size="524288" offset="23770636"/>
      <biases size="512" offset="24294924"/>
    </layer>
    <layer name="ReLU_stage3_unit10_relu2" type="ReLU" id="140" precision="FP16">
      <input>
        <port id="295">
          <dim>1</dim>
          <dim>256</dim>
          <dim>19</dim>
          <dim>19</dim>
        </port>
      </input>
      <output>
        <port id="294">
          <dim>1</dim>
          <dim>256</dim>
          <dim>19</dim>
          <dim>19</dim>
        </port>
      </output>
    </layer>
    <layer name="Convolution_stage3_unit10_conv2" type="Convolution" id="141" precision="FP16">
      <convolution_data stride-x="1" stride-y="1" pad-x="1" pad-y="1" kernel-x="3" kernel-y="3" output="256" group="1"/>
      <input>
        <port id="297">
          <dim>1</dim>
          <dim>256</dim>
          <dim>19</dim>
          <dim>19</dim>
        </port>
      </input>
      <output>
        <port id="296">
          <dim>1</dim>
          <dim>256</dim>
          <dim>19</dim>
          <dim>19</dim>
        </port>
      </output>
      <weights size="1179648" offset="24295436"/>
      <biases size="512" offset="25475084"/>
    </layer>
    <layer name="ReLU_stage3_unit10_relu3" type="ReLU" id="142" precision="FP16">
      <input>
        <port id="299">
          <dim>1</dim>
          <dim>256</dim>
          <dim>19</dim>
          <dim>19</dim>
        </port>
      </input>
      <output>
        <port id="298">
          <dim>1</dim>
          <dim>256</dim>
          <dim>19</dim>
          <dim>19</dim>
        </port>
      </output>
    </layer>
    <layer name="Convolution_stage3_unit10_conv3" type="Convolution" id="143" precision="FP16">
      <convolution_data stride-x="1" stride-y="1" pad-x="0" pad-y="0" kernel-x="1" kernel-y="1" output="1024" group="1"/>
      <input>
        <port id="301">
          <dim>1</dim>
          <dim>256</dim>
          <dim>19</dim>
          <dim>19</dim>
        </port>
      </input>
      <output>
        <port id="300">
          <dim>1</dim>
          <dim>1024</dim>
          <dim>19</dim>
          <dim>19</dim>
        </port>
      </output>
      <weights size="524288" offset="25475596"/>
    </layer>
    <layer name="Eltwise__plus16" type="Eltwise" id="144" precision="FP16">
      <elementwise_data operation=""/>
      <input>
        <port id="303">
          <dim>1</dim>
          <dim>1024</dim>
          <dim>19</dim>
          <dim>19</dim>
        </port>
        <port id="304">
          <dim>1</dim>
          <dim>1024</dim>
          <dim>19</dim>
          <dim>19</dim>
        </port>
      </input>
      <output>
        <port id="302">
          <dim>1</dim>
          <dim>1024</dim>
          <dim>19</dim>
          <dim>19</dim>
        </port>
      </output>
    </layer>
    <layer name="ScaleShift_stage3_unit11_bn1" type="ScaleShift" id="145" precision="FP16">
      <input>
        <port id="306">
          <dim>1</dim>
          <dim>1024</dim>
          <dim>19</dim>
          <dim>19</dim>
        </port>
      </input>
      <output>
        <port id="305">
          <dim>1</dim>
          <dim>1024</dim>
          <dim>19</dim>
          <dim>19</dim>
        </port>
      </output>
      <weights size="2048" offset="25999884"/>
      <biases size="2048" offset="26001932"/>
    </layer>
    <layer name="ReLU_stage3_unit11_relu1" type="ReLU" id="146" precision="FP16">
      <input>
        <port id="308">
          <dim>1</dim>
          <dim>1024</dim>
          <dim>19</dim>
          <dim>19</dim>
        </port>
      </input>
      <output>
        <port id="307">
          <dim>1</dim>
          <dim>1024</dim>
          <dim>19</dim>
          <dim>19</dim>
        </port>
      </output>
    </layer>
    <layer name="Convolution_stage3_unit11_conv1" type="Convolution" id="147" precision="FP16">
      <convolution_data stride-x="1" stride-y="1" pad-x="0" pad-y="0" kernel-x="1" kernel-y="1" output="256" group="1"/>
      <input>
        <port id="310">
          <dim>1</dim>
          <dim>1024</dim>
          <dim>19</dim>
          <dim>19</dim>
        </port>
      </input>
      <output>
        <port id="309">
          <dim>1</dim>
          <dim>256</dim>
          <dim>19</dim>
          <dim>19</dim>
        </port>
      </output>
      <weights size="524288" offset="26003980"/>
      <biases size="512" offset="26528268"/>
    </layer>
    <layer name="ReLU_stage3_unit11_relu2" type="ReLU" id="148" precision="FP16">
      <input>
        <port id="312">
          <dim>1</dim>
          <dim>256</dim>
          <dim>19</dim>
          <dim>19</dim>
        </port>
      </input>
      <output>
        <port id="311">
          <dim>1</dim>
          <dim>256</dim>
          <dim>19</dim>
          <dim>19</dim>
        </port>
      </output>
    </layer>
    <layer name="Convolution_stage3_unit11_conv2" type="Convolution" id="149" precision="FP16">
      <convolution_data stride-x="1" stride-y="1" pad-x="1" pad-y="1" kernel-x="3" kernel-y="3" output="256" group="1"/>
      <input>
        <port id="314">
          <dim>1</dim>
          <dim>256</dim>
          <dim>19</dim>
          <dim>19</dim>
        </port>
      </input>
      <output>
        <port id="313">
          <dim>1</dim>
          <dim>256</dim>
          <dim>19</dim>
          <dim>19</dim>
        </port>
      </output>
      <weights size="1179648" offset="26528780"/>
      <biases size="512" offset="27708428"/>
    </layer>
    <layer name="ReLU_stage3_unit11_relu3" type="ReLU" id="150" precision="FP16">
      <input>
        <port id="316">
          <dim>1</dim>
          <dim>256</dim>
          <dim>19</dim>
          <dim>19</dim>
        </port>
      </input>
      <output>
        <port id="315">
          <dim>1</dim>
          <dim>256</dim>
          <dim>19</dim>
          <dim>19</dim>
        </port>
      </output>
    </layer>
    <layer name="Convolution_stage3_unit11_conv3" type="Convolution" id="151" precision="FP16">
      <convolution_data stride-x="1" stride-y="1" pad-x="0" pad-y="0" kernel-x="1" kernel-y="1" output="1024" group="1"/>
      <input>
        <port id="318">
          <dim>1</dim>
          <dim>256</dim>
          <dim>19</dim>
          <dim>19</dim>
        </port>
      </input>
      <output>
        <port id="317">
          <dim>1</dim>
          <dim>1024</dim>
          <dim>19</dim>
          <dim>19</dim>
        </port>
      </output>
      <weights size="524288" offset="27708940"/>
    </layer>
    <layer name="Eltwise__plus17" type="Eltwise" id="152" precision="FP16">
      <elementwise_data operation=""/>
      <input>
        <port id="320">
          <dim>1</dim>
          <dim>1024</dim>
          <dim>19</dim>
          <dim>19</dim>
        </port>
        <port id="321">
          <dim>1</dim>
          <dim>1024</dim>
          <dim>19</dim>
          <dim>19</dim>
        </port>
      </input>
      <output>
        <port id="319">
          <dim>1</dim>
          <dim>1024</dim>
          <dim>19</dim>
          <dim>19</dim>
        </port>
      </output>
    </layer>
    <layer name="ScaleShift_stage3_unit12_bn1" type="ScaleShift" id="153" precision="FP16">
      <input>
        <port id="323">
          <dim>1</dim>
          <dim>1024</dim>
          <dim>19</dim>
          <dim>19</dim>
        </port>
      </input>
      <output>
        <port id="322">
          <dim>1</dim>
          <dim>1024</dim>
          <dim>19</dim>
          <dim>19</dim>
        </port>
      </output>
      <weights size="2048" offset="28233228"/>
      <biases size="2048" offset="28235276"/>
    </layer>
    <layer name="ReLU_stage3_unit12_relu1" type="ReLU" id="154" precision="FP16">
      <input>
        <port id="325">
          <dim>1</dim>
          <dim>1024</dim>
          <dim>19</dim>
          <dim>19</dim>
        </port>
      </input>
      <output>
        <port id="324">
          <dim>1</dim>
          <dim>1024</dim>
          <dim>19</dim>
          <dim>19</dim>
        </port>
      </output>
    </layer>
    <layer name="Convolution_stage3_unit12_conv1" type="Convolution" id="155" precision="FP16">
      <convolution_data stride-x="1" stride-y="1" pad-x="0" pad-y="0" kernel-x="1" kernel-y="1" output="256" group="1"/>
      <input>
        <port id="327">
          <dim>1</dim>
          <dim>1024</dim>
          <dim>19</dim>
          <dim>19</dim>
        </port>
      </input>
      <output>
        <port id="326">
          <dim>1</dim>
          <dim>256</dim>
          <dim>19</dim>
          <dim>19</dim>
        </port>
      </output>
      <weights size="524288" offset="28237324"/>
      <biases size="512" offset="28761612"/>
    </layer>
    <layer name="ReLU_stage3_unit12_relu2" type="ReLU" id="156" precision="FP16">
      <input>
        <port id="329">
          <dim>1</dim>
          <dim>256</dim>
          <dim>19</dim>
          <dim>19</dim>
        </port>
      </input>
      <output>
        <port id="328">
          <dim>1</dim>
          <dim>256</dim>
          <dim>19</dim>
          <dim>19</dim>
        </port>
      </output>
    </layer>
    <layer name="Convolution_stage3_unit12_conv2" type="Convolution" id="157" precision="FP16">
      <convolution_data stride-x="1" stride-y="1" pad-x="1" pad-y="1" kernel-x="3" kernel-y="3" output="256" group="1"/>
      <input>
        <port id="331">
          <dim>1</dim>
          <dim>256</dim>
          <dim>19</dim>
          <dim>19</dim>
        </port>
      </input>
      <output>
        <port id="330">
          <dim>1</dim>
          <dim>256</dim>
          <dim>19</dim>
          <dim>19</dim>
        </port>
      </output>
      <weights size="1179648" offset="28762124"/>
      <biases size="512" offset="29941772"/>
    </layer>
    <layer name="ReLU_stage3_unit12_relu3" type="ReLU" id="158" precision="FP16">
      <input>
        <port id="333">
          <dim>1</dim>
          <dim>256</dim>
          <dim>19</dim>
          <dim>19</dim>
        </port>
      </input>
      <output>
        <port id="332">
          <dim>1</dim>
          <dim>256</dim>
          <dim>19</dim>
          <dim>19</dim>
        </port>
      </output>
    </layer>
    <layer name="Convolution_stage3_unit12_conv3" type="Convolution" id="159" precision="FP16">
      <convolution_data stride-x="1" stride-y="1" pad-x="0" pad-y="0" kernel-x="1" kernel-y="1" output="1024" group="1"/>
      <input>
        <port id="335">
          <dim>1</dim>
          <dim>256</dim>
          <dim>19</dim>
          <dim>19</dim>
        </port>
      </input>
      <output>
        <port id="334">
          <dim>1</dim>
          <dim>1024</dim>
          <dim>19</dim>
          <dim>19</dim>
        </port>
      </output>
      <weights size="524288" offset="29942284"/>
    </layer>
    <layer name="Eltwise__plus18" type="Eltwise" id="160" precision="FP16">
      <elementwise_data operation=""/>
      <input>
        <port id="337">
          <dim>1</dim>
          <dim>1024</dim>
          <dim>19</dim>
          <dim>19</dim>
        </port>
        <port id="338">
          <dim>1</dim>
          <dim>1024</dim>
          <dim>19</dim>
          <dim>19</dim>
        </port>
      </input>
      <output>
        <port id="336">
          <dim>1</dim>
          <dim>1024</dim>
          <dim>19</dim>
          <dim>19</dim>
        </port>
      </output>
    </layer>
    <layer name="ScaleShift_stage3_unit13_bn1" type="ScaleShift" id="161" precision="FP16">
      <input>
        <port id="340">
          <dim>1</dim>
          <dim>1024</dim>
          <dim>19</dim>
          <dim>19</dim>
        </port>
      </input>
      <output>
        <port id="339">
          <dim>1</dim>
          <dim>1024</dim>
          <dim>19</dim>
          <dim>19</dim>
        </port>
      </output>
      <weights size="2048" offset="30466572"/>
      <biases size="2048" offset="30468620"/>
    </layer>
    <layer name="ReLU_stage3_unit13_relu1" type="ReLU" id="162" precision="FP16">
      <input>
        <port id="342">
          <dim>1</dim>
          <dim>1024</dim>
          <dim>19</dim>
          <dim>19</dim>
        </port>
      </input>
      <output>
        <port id="341">
          <dim>1</dim>
          <dim>1024</dim>
          <dim>19</dim>
          <dim>19</dim>
        </port>
      </output>
    </layer>
    <layer name="Convolution_stage3_unit13_conv1" type="Convolution" id="163" precision="FP16">
      <convolution_data stride-x="1" stride-y="1" pad-x="0" pad-y="0" kernel-x="1" kernel-y="1" output="256" group="1"/>
      <input>
        <port id="344">
          <dim>1</dim>
          <dim>1024</dim>
          <dim>19</dim>
          <dim>19</dim>
        </port>
      </input>
      <output>
        <port id="343">
          <dim>1</dim>
          <dim>256</dim>
          <dim>19</dim>
          <dim>19</dim>
        </port>
      </output>
      <weights size="524288" offset="30470668"/>
      <biases size="512" offset="30994956"/>
    </layer>
    <layer name="ReLU_stage3_unit13_relu2" type="ReLU" id="164" precision="FP16">
      <input>
        <port id="346">
          <dim>1</dim>
          <dim>256</dim>
          <dim>19</dim>
          <dim>19</dim>
        </port>
      </input>
      <output>
        <port id="345">
          <dim>1</dim>
          <dim>256</dim>
          <dim>19</dim>
          <dim>19</dim>
        </port>
      </output>
    </layer>
    <layer name="Convolution_stage3_unit13_conv2" type="Convolution" id="165" precision="FP16">
      <convolution_data stride-x="1" stride-y="1" pad-x="1" pad-y="1" kernel-x="3" kernel-y="3" output="256" group="1"/>
      <input>
        <port id="348">
          <dim>1</dim>
          <dim>256</dim>
          <dim>19</dim>
          <dim>19</dim>
        </port>
      </input>
      <output>
        <port id="347">
          <dim>1</dim>
          <dim>256</dim>
          <dim>19</dim>
          <dim>19</dim>
        </port>
      </output>
      <weights size="1179648" offset="30995468"/>
      <biases size="512" offset="32175116"/>
    </layer>
    <layer name="ReLU_stage3_unit13_relu3" type="ReLU" id="166" precision="FP16">
      <input>
        <port id="350">
          <dim>1</dim>
          <dim>256</dim>
          <dim>19</dim>
          <dim>19</dim>
        </port>
      </input>
      <output>
        <port id="349">
          <dim>1</dim>
          <dim>256</dim>
          <dim>19</dim>
          <dim>19</dim>
        </port>
      </output>
    </layer>
    <layer name="Convolution_stage3_unit13_conv3" type="Convolution" id="167" precision="FP16">
      <convolution_data stride-x="1" stride-y="1" pad-x="0" pad-y="0" kernel-x="1" kernel-y="1" output="1024" group="1"/>
      <input>
        <port id="352">
          <dim>1</dim>
          <dim>256</dim>
          <dim>19</dim>
          <dim>19</dim>
        </port>
      </input>
      <output>
        <port id="351">
          <dim>1</dim>
          <dim>1024</dim>
          <dim>19</dim>
          <dim>19</dim>
        </port>
      </output>
      <weights size="524288" offset="32175628"/>
    </layer>
    <layer name="Eltwise__plus19" type="Eltwise" id="168" precision="FP16">
      <elementwise_data operation=""/>
      <input>
        <port id="354">
          <dim>1</dim>
          <dim>1024</dim>
          <dim>19</dim>
          <dim>19</dim>
        </port>
        <port id="355">
          <dim>1</dim>
          <dim>1024</dim>
          <dim>19</dim>
          <dim>19</dim>
        </port>
      </input>
      <output>
        <port id="353">
          <dim>1</dim>
          <dim>1024</dim>
          <dim>19</dim>
          <dim>19</dim>
        </port>
      </output>
    </layer>
    <layer name="ScaleShift_stage3_unit14_bn1" type="ScaleShift" id="169" precision="FP16">
      <input>
        <port id="357">
          <dim>1</dim>
          <dim>1024</dim>
          <dim>19</dim>
          <dim>19</dim>
        </port>
      </input>
      <output>
        <port id="356">
          <dim>1</dim>
          <dim>1024</dim>
          <dim>19</dim>
          <dim>19</dim>
        </port>
      </output>
      <weights size="2048" offset="32699916"/>
      <biases size="2048" offset="32701964"/>
    </layer>
    <layer name="ReLU_stage3_unit14_relu1" type="ReLU" id="170" precision="FP16">
      <input>
        <port id="359">
          <dim>1</dim>
          <dim>1024</dim>
          <dim>19</dim>
          <dim>19</dim>
        </port>
      </input>
      <output>
        <port id="358">
          <dim>1</dim>
          <dim>1024</dim>
          <dim>19</dim>
          <dim>19</dim>
        </port>
      </output>
    </layer>
    <layer name="Convolution_stage3_unit14_conv1" type="Convolution" id="171" precision="FP16">
      <convolution_data stride-x="1" stride-y="1" pad-x="0" pad-y="0" kernel-x="1" kernel-y="1" output="256" group="1"/>
      <input>
        <port id="361">
          <dim>1</dim>
          <dim>1024</dim>
          <dim>19</dim>
          <dim>19</dim>
        </port>
      </input>
      <output>
        <port id="360">
          <dim>1</dim>
          <dim>256</dim>
          <dim>19</dim>
          <dim>19</dim>
        </port>
      </output>
      <weights size="524288" offset="32704012"/>
      <biases size="512" offset="33228300"/>
    </layer>
    <layer name="ReLU_stage3_unit14_relu2" type="ReLU" id="172" precision="FP16">
      <input>
        <port id="363">
          <dim>1</dim>
          <dim>256</dim>
          <dim>19</dim>
          <dim>19</dim>
        </port>
      </input>
      <output>
        <port id="362">
          <dim>1</dim>
          <dim>256</dim>
          <dim>19</dim>
          <dim>19</dim>
        </port>
      </output>
    </layer>
    <layer name="Convolution_stage3_unit14_conv2" type="Convolution" id="173" precision="FP16">
      <convolution_data stride-x="1" stride-y="1" pad-x="1" pad-y="1" kernel-x="3" kernel-y="3" output="256" group="1"/>
      <input>
        <port id="365">
          <dim>1</dim>
          <dim>256</dim>
          <dim>19</dim>
          <dim>19</dim>
        </port>
      </input>
      <output>
        <port id="364">
          <dim>1</dim>
          <dim>256</dim>
          <dim>19</dim>
          <dim>19</dim>
        </port>
      </output>
      <weights size="1179648" offset="33228812"/>
      <biases size="512" offset="34408460"/>
    </layer>
    <layer name="ReLU_stage3_unit14_relu3" type="ReLU" id="174" precision="FP16">
      <input>
        <port id="367">
          <dim>1</dim>
          <dim>256</dim>
          <dim>19</dim>
          <dim>19</dim>
        </port>
      </input>
      <output>
        <port id="366">
          <dim>1</dim>
          <dim>256</dim>
          <dim>19</dim>
          <dim>19</dim>
        </port>
      </output>
    </layer>
    <layer name="Convolution_stage3_unit14_conv3" type="Convolution" id="175" precision="FP16">
      <convolution_data stride-x="1" stride-y="1" pad-x="0" pad-y="0" kernel-x="1" kernel-y="1" output="1024" group="1"/>
      <input>
        <port id="369">
          <dim>1</dim>
          <dim>256</dim>
          <dim>19</dim>
          <dim>19</dim>
        </port>
      </input>
      <output>
        <port id="368">
          <dim>1</dim>
          <dim>1024</dim>
          <dim>19</dim>
          <dim>19</dim>
        </port>
      </output>
      <weights size="524288" offset="34408972"/>
    </layer>
    <layer name="Eltwise__plus20" type="Eltwise" id="176" precision="FP16">
      <elementwise_data operation=""/>
      <input>
        <port id="371">
          <dim>1</dim>
          <dim>1024</dim>
          <dim>19</dim>
          <dim>19</dim>
        </port>
        <port id="372">
          <dim>1</dim>
          <dim>1024</dim>
          <dim>19</dim>
          <dim>19</dim>
        </port>
      </input>
      <output>
        <port id="370">
          <dim>1</dim>
          <dim>1024</dim>
          <dim>19</dim>
          <dim>19</dim>
        </port>
      </output>
    </layer>
    <layer name="ScaleShift_stage3_unit15_bn1" type="ScaleShift" id="177" precision="FP16">
      <input>
        <port id="374">
          <dim>1</dim>
          <dim>1024</dim>
          <dim>19</dim>
          <dim>19</dim>
        </port>
      </input>
      <output>
        <port id="373">
          <dim>1</dim>
          <dim>1024</dim>
          <dim>19</dim>
          <dim>19</dim>
        </port>
      </output>
      <weights size="2048" offset="34933260"/>
      <biases size="2048" offset="34935308"/>
    </layer>
    <layer name="ReLU_stage3_unit15_relu1" type="ReLU" id="178" precision="FP16">
      <input>
        <port id="376">
          <dim>1</dim>
          <dim>1024</dim>
          <dim>19</dim>
          <dim>19</dim>
        </port>
      </input>
      <output>
        <port id="375">
          <dim>1</dim>
          <dim>1024</dim>
          <dim>19</dim>
          <dim>19</dim>
        </port>
      </output>
    </layer>
    <layer name="Convolution_stage3_unit15_conv1" type="Convolution" id="179" precision="FP16">
      <convolution_data stride-x="1" stride-y="1" pad-x="0" pad-y="0" kernel-x="1" kernel-y="1" output="256" group="1"/>
      <input>
        <port id="378">
          <dim>1</dim>
          <dim>1024</dim>
          <dim>19</dim>
          <dim>19</dim>
        </port>
      </input>
      <output>
        <port id="377">
          <dim>1</dim>
          <dim>256</dim>
          <dim>19</dim>
          <dim>19</dim>
        </port>
      </output>
      <weights size="524288" offset="34937356"/>
      <biases size="512" offset="35461644"/>
    </layer>
    <layer name="ReLU_stage3_unit15_relu2" type="ReLU" id="180" precision="FP16">
      <input>
        <port id="380">
          <dim>1</dim>
          <dim>256</dim>
          <dim>19</dim>
          <dim>19</dim>
        </port>
      </input>
      <output>
        <port id="379">
          <dim>1</dim>
          <dim>256</dim>
          <dim>19</dim>
          <dim>19</dim>
        </port>
      </output>
    </layer>
    <layer name="Convolution_stage3_unit15_conv2" type="Convolution" id="181" precision="FP16">
      <convolution_data stride-x="1" stride-y="1" pad-x="1" pad-y="1" kernel-x="3" kernel-y="3" output="256" group="1"/>
      <input>
        <port id="382">
          <dim>1</dim>
          <dim>256</dim>
          <dim>19</dim>
          <dim>19</dim>
        </port>
      </input>
      <output>
        <port id="381">
          <dim>1</dim>
          <dim>256</dim>
          <dim>19</dim>
          <dim>19</dim>
        </port>
      </output>
      <weights size="1179648" offset="35462156"/>
      <biases size="512" offset="36641804"/>
    </layer>
    <layer name="ReLU_stage3_unit15_relu3" type="ReLU" id="182" precision="FP16">
      <input>
        <port id="384">
          <dim>1</dim>
          <dim>256</dim>
          <dim>19</dim>
          <dim>19</dim>
        </port>
      </input>
      <output>
        <port id="383">
          <dim>1</dim>
          <dim>256</dim>
          <dim>19</dim>
          <dim>19</dim>
        </port>
      </output>
    </layer>
    <layer name="Convolution_stage3_unit15_conv3" type="Convolution" id="183" precision="FP16">
      <convolution_data stride-x="1" stride-y="1" pad-x="0" pad-y="0" kernel-x="1" kernel-y="1" output="1024" group="1"/>
      <input>
        <port id="386">
          <dim>1</dim>
          <dim>256</dim>
          <dim>19</dim>
          <dim>19</dim>
        </port>
      </input>
      <output>
        <port id="385">
          <dim>1</dim>
          <dim>1024</dim>
          <dim>19</dim>
          <dim>19</dim>
        </port>
      </output>
      <weights size="524288" offset="36642316"/>
    </layer>
    <layer name="Eltwise__plus21" type="Eltwise" id="184" precision="FP16">
      <elementwise_data operation=""/>
      <input>
        <port id="388">
          <dim>1</dim>
          <dim>1024</dim>
          <dim>19</dim>
          <dim>19</dim>
        </port>
        <port id="389">
          <dim>1</dim>
          <dim>1024</dim>
          <dim>19</dim>
          <dim>19</dim>
        </port>
      </input>
      <output>
        <port id="387">
          <dim>1</dim>
          <dim>1024</dim>
          <dim>19</dim>
          <dim>19</dim>
        </port>
      </output>
    </layer>
    <layer name="ScaleShift_stage3_unit16_bn1" type="ScaleShift" id="185" precision="FP16">
      <input>
        <port id="391">
          <dim>1</dim>
          <dim>1024</dim>
          <dim>19</dim>
          <dim>19</dim>
        </port>
      </input>
      <output>
        <port id="390">
          <dim>1</dim>
          <dim>1024</dim>
          <dim>19</dim>
          <dim>19</dim>
        </port>
      </output>
      <weights size="2048" offset="37166604"/>
      <biases size="2048" offset="37168652"/>
    </layer>
    <layer name="ReLU_stage3_unit16_relu1" type="ReLU" id="186" precision="FP16">
      <input>
        <port id="393">
          <dim>1</dim>
          <dim>1024</dim>
          <dim>19</dim>
          <dim>19</dim>
        </port>
      </input>
      <output>
        <port id="392">
          <dim>1</dim>
          <dim>1024</dim>
          <dim>19</dim>
          <dim>19</dim>
        </port>
      </output>
    </layer>
    <layer name="Convolution_stage3_unit16_conv1" type="Convolution" id="187" precision="FP16">
      <convolution_data stride-x="1" stride-y="1" pad-x="0" pad-y="0" kernel-x="1" kernel-y="1" output="256" group="1"/>
      <input>
        <port id="395">
          <dim>1</dim>
          <dim>1024</dim>
          <dim>19</dim>
          <dim>19</dim>
        </port>
      </input>
      <output>
        <port id="394">
          <dim>1</dim>
          <dim>256</dim>
          <dim>19</dim>
          <dim>19</dim>
        </port>
      </output>
      <weights size="524288" offset="37170700"/>
      <biases size="512" offset="37694988"/>
    </layer>
    <layer name="ReLU_stage3_unit16_relu2" type="ReLU" id="188" precision="FP16">
      <input>
        <port id="397">
          <dim>1</dim>
          <dim>256</dim>
          <dim>19</dim>
          <dim>19</dim>
        </port>
      </input>
      <output>
        <port id="396">
          <dim>1</dim>
          <dim>256</dim>
          <dim>19</dim>
          <dim>19</dim>
        </port>
      </output>
    </layer>
    <layer name="Convolution_stage3_unit16_conv2" type="Convolution" id="189" precision="FP16">
      <convolution_data stride-x="1" stride-y="1" pad-x="1" pad-y="1" kernel-x="3" kernel-y="3" output="256" group="1"/>
      <input>
        <port id="399">
          <dim>1</dim>
          <dim>256</dim>
          <dim>19</dim>
          <dim>19</dim>
        </port>
      </input>
      <output>
        <port id="398">
          <dim>1</dim>
          <dim>256</dim>
          <dim>19</dim>
          <dim>19</dim>
        </port>
      </output>
      <weights size="1179648" offset="37695500"/>
      <biases size="512" offset="38875148"/>
    </layer>
    <layer name="ReLU_stage3_unit16_relu3" type="ReLU" id="190" precision="FP16">
      <input>
        <port id="401">
          <dim>1</dim>
          <dim>256</dim>
          <dim>19</dim>
          <dim>19</dim>
        </port>
      </input>
      <output>
        <port id="400">
          <dim>1</dim>
          <dim>256</dim>
          <dim>19</dim>
          <dim>19</dim>
        </port>
      </output>
    </layer>
    <layer name="Convolution_stage3_unit16_conv3" type="Convolution" id="191" precision="FP16">
      <convolution_data stride-x="1" stride-y="1" pad-x="0" pad-y="0" kernel-x="1" kernel-y="1" output="1024" group="1"/>
      <input>
        <port id="403">
          <dim>1</dim>
          <dim>256</dim>
          <dim>19</dim>
          <dim>19</dim>
        </port>
      </input>
      <output>
        <port id="402">
          <dim>1</dim>
          <dim>1024</dim>
          <dim>19</dim>
          <dim>19</dim>
        </port>
      </output>
      <weights size="524288" offset="38875660"/>
    </layer>
    <layer name="Eltwise__plus22" type="Eltwise" id="192" precision="FP16">
      <elementwise_data operation=""/>
      <input>
        <port id="405">
          <dim>1</dim>
          <dim>1024</dim>
          <dim>19</dim>
          <dim>19</dim>
        </port>
        <port id="406">
          <dim>1</dim>
          <dim>1024</dim>
          <dim>19</dim>
          <dim>19</dim>
        </port>
      </input>
      <output>
        <port id="404">
          <dim>1</dim>
          <dim>1024</dim>
          <dim>19</dim>
          <dim>19</dim>
        </port>
      </output>
    </layer>
    <layer name="ScaleShift_stage3_unit17_bn1" type="ScaleShift" id="193" precision="FP16">
      <input>
        <port id="408">
          <dim>1</dim>
          <dim>1024</dim>
          <dim>19</dim>
          <dim>19</dim>
        </port>
      </input>
      <output>
        <port id="407">
          <dim>1</dim>
          <dim>1024</dim>
          <dim>19</dim>
          <dim>19</dim>
        </port>
      </output>
      <weights size="2048" offset="39399948"/>
      <biases size="2048" offset="39401996"/>
    </layer>
    <layer name="ReLU_stage3_unit17_relu1" type="ReLU" id="194" precision="FP16">
      <input>
        <port id="410">
          <dim>1</dim>
          <dim>1024</dim>
          <dim>19</dim>
          <dim>19</dim>
        </port>
      </input>
      <output>
        <port id="409">
          <dim>1</dim>
          <dim>1024</dim>
          <dim>19</dim>
          <dim>19</dim>
        </port>
      </output>
    </layer>
    <layer name="Convolution_stage3_unit17_conv1" type="Convolution" id="195" precision="FP16">
      <convolution_data stride-x="1" stride-y="1" pad-x="0" pad-y="0" kernel-x="1" kernel-y="1" output="256" group="1"/>
      <input>
        <port id="412">
          <dim>1</dim>
          <dim>1024</dim>
          <dim>19</dim>
          <dim>19</dim>
        </port>
      </input>
      <output>
        <port id="411">
          <dim>1</dim>
          <dim>256</dim>
          <dim>19</dim>
          <dim>19</dim>
        </port>
      </output>
      <weights size="524288" offset="39404044"/>
      <biases size="512" offset="39928332"/>
    </layer>
    <layer name="ReLU_stage3_unit17_relu2" type="ReLU" id="196" precision="FP16">
      <input>
        <port id="414">
          <dim>1</dim>
          <dim>256</dim>
          <dim>19</dim>
          <dim>19</dim>
        </port>
      </input>
      <output>
        <port id="413">
          <dim>1</dim>
          <dim>256</dim>
          <dim>19</dim>
          <dim>19</dim>
        </port>
      </output>
    </layer>
    <layer name="Convolution_stage3_unit17_conv2" type="Convolution" id="197" precision="FP16">
      <convolution_data stride-x="1" stride-y="1" pad-x="1" pad-y="1" kernel-x="3" kernel-y="3" output="256" group="1"/>
      <input>
        <port id="416">
          <dim>1</dim>
          <dim>256</dim>
          <dim>19</dim>
          <dim>19</dim>
        </port>
      </input>
      <output>
        <port id="415">
          <dim>1</dim>
          <dim>256</dim>
          <dim>19</dim>
          <dim>19</dim>
        </port>
      </output>
      <weights size="1179648" offset="39928844"/>
      <biases size="512" offset="41108492"/>
    </layer>
    <layer name="ReLU_stage3_unit17_relu3" type="ReLU" id="198" precision="FP16">
      <input>
        <port id="418">
          <dim>1</dim>
          <dim>256</dim>
          <dim>19</dim>
          <dim>19</dim>
        </port>
      </input>
      <output>
        <port id="417">
          <dim>1</dim>
          <dim>256</dim>
          <dim>19</dim>
          <dim>19</dim>
        </port>
      </output>
    </layer>
    <layer name="Convolution_stage3_unit17_conv3" type="Convolution" id="199" precision="FP16">
      <convolution_data stride-x="1" stride-y="1" pad-x="0" pad-y="0" kernel-x="1" kernel-y="1" output="1024" group="1"/>
      <input>
        <port id="420">
          <dim>1</dim>
          <dim>256</dim>
          <dim>19</dim>
          <dim>19</dim>
        </port>
      </input>
      <output>
        <port id="419">
          <dim>1</dim>
          <dim>1024</dim>
          <dim>19</dim>
          <dim>19</dim>
        </port>
      </output>
      <weights size="524288" offset="41109004"/>
    </layer>
    <layer name="Eltwise__plus23" type="Eltwise" id="200" precision="FP16">
      <elementwise_data operation=""/>
      <input>
        <port id="422">
          <dim>1</dim>
          <dim>1024</dim>
          <dim>19</dim>
          <dim>19</dim>
        </port>
        <port id="423">
          <dim>1</dim>
          <dim>1024</dim>
          <dim>19</dim>
          <dim>19</dim>
        </port>
      </input>
      <output>
        <port id="421">
          <dim>1</dim>
          <dim>1024</dim>
          <dim>19</dim>
          <dim>19</dim>
        </port>
      </output>
    </layer>
    <layer name="ScaleShift_stage3_unit18_bn1" type="ScaleShift" id="201" precision="FP16">
      <input>
        <port id="425">
          <dim>1</dim>
          <dim>1024</dim>
          <dim>19</dim>
          <dim>19</dim>
        </port>
      </input>
      <output>
        <port id="424">
          <dim>1</dim>
          <dim>1024</dim>
          <dim>19</dim>
          <dim>19</dim>
        </port>
      </output>
      <weights size="2048" offset="41633292"/>
      <biases size="2048" offset="41635340"/>
    </layer>
    <layer name="ReLU_stage3_unit18_relu1" type="ReLU" id="202" precision="FP16">
      <input>
        <port id="427">
          <dim>1</dim>
          <dim>1024</dim>
          <dim>19</dim>
          <dim>19</dim>
        </port>
      </input>
      <output>
        <port id="426">
          <dim>1</dim>
          <dim>1024</dim>
          <dim>19</dim>
          <dim>19</dim>
        </port>
      </output>
    </layer>
    <layer name="Convolution_stage3_unit18_conv1" type="Convolution" id="203" precision="FP16">
      <convolution_data stride-x="1" stride-y="1" pad-x="0" pad-y="0" kernel-x="1" kernel-y="1" output="256" group="1"/>
      <input>
        <port id="429">
          <dim>1</dim>
          <dim>1024</dim>
          <dim>19</dim>
          <dim>19</dim>
        </port>
      </input>
      <output>
        <port id="428">
          <dim>1</dim>
          <dim>256</dim>
          <dim>19</dim>
          <dim>19</dim>
        </port>
      </output>
      <weights size="524288" offset="41637388"/>
      <biases size="512" offset="42161676"/>
    </layer>
    <layer name="ReLU_stage3_unit18_relu2" type="ReLU" id="204" precision="FP16">
      <input>
        <port id="431">
          <dim>1</dim>
          <dim>256</dim>
          <dim>19</dim>
          <dim>19</dim>
        </port>
      </input>
      <output>
        <port id="430">
          <dim>1</dim>
          <dim>256</dim>
          <dim>19</dim>
          <dim>19</dim>
        </port>
      </output>
    </layer>
    <layer name="Convolution_stage3_unit18_conv2" type="Convolution" id="205" precision="FP16">
      <convolution_data stride-x="1" stride-y="1" pad-x="1" pad-y="1" kernel-x="3" kernel-y="3" output="256" group="1"/>
      <input>
        <port id="433">
          <dim>1</dim>
          <dim>256</dim>
          <dim>19</dim>
          <dim>19</dim>
        </port>
      </input>
      <output>
        <port id="432">
          <dim>1</dim>
          <dim>256</dim>
          <dim>19</dim>
          <dim>19</dim>
        </port>
      </output>
      <weights size="1179648" offset="42162188"/>
      <biases size="512" offset="43341836"/>
    </layer>
    <layer name="ReLU_stage3_unit18_relu3" type="ReLU" id="206" precision="FP16">
      <input>
        <port id="435">
          <dim>1</dim>
          <dim>256</dim>
          <dim>19</dim>
          <dim>19</dim>
        </port>
      </input>
      <output>
        <port id="434">
          <dim>1</dim>
          <dim>256</dim>
          <dim>19</dim>
          <dim>19</dim>
        </port>
      </output>
    </layer>
    <layer name="Convolution_stage3_unit18_conv3" type="Convolution" id="207" precision="FP16">
      <convolution_data stride-x="1" stride-y="1" pad-x="0" pad-y="0" kernel-x="1" kernel-y="1" output="1024" group="1"/>
      <input>
        <port id="437">
          <dim>1</dim>
          <dim>256</dim>
          <dim>19</dim>
          <dim>19</dim>
        </port>
      </input>
      <output>
        <port id="436">
          <dim>1</dim>
          <dim>1024</dim>
          <dim>19</dim>
          <dim>19</dim>
        </port>
      </output>
      <weights size="524288" offset="43342348"/>
    </layer>
    <layer name="Eltwise__plus24" type="Eltwise" id="208" precision="FP16">
      <elementwise_data operation=""/>
      <input>
        <port id="439">
          <dim>1</dim>
          <dim>1024</dim>
          <dim>19</dim>
          <dim>19</dim>
        </port>
        <port id="440">
          <dim>1</dim>
          <dim>1024</dim>
          <dim>19</dim>
          <dim>19</dim>
        </port>
      </input>
      <output>
        <port id="438">
          <dim>1</dim>
          <dim>1024</dim>
          <dim>19</dim>
          <dim>19</dim>
        </port>
      </output>
    </layer>
    <layer name="ScaleShift_stage3_unit19_bn1" type="ScaleShift" id="209" precision="FP16">
      <input>
        <port id="442">
          <dim>1</dim>
          <dim>1024</dim>
          <dim>19</dim>
          <dim>19</dim>
        </port>
      </input>
      <output>
        <port id="441">
          <dim>1</dim>
          <dim>1024</dim>
          <dim>19</dim>
          <dim>19</dim>
        </port>
      </output>
      <weights size="2048" offset="43866636"/>
      <biases size="2048" offset="43868684"/>
    </layer>
    <layer name="ReLU_stage3_unit19_relu1" type="ReLU" id="210" precision="FP16">
      <input>
        <port id="444">
          <dim>1</dim>
          <dim>1024</dim>
          <dim>19</dim>
          <dim>19</dim>
        </port>
      </input>
      <output>
        <port id="443">
          <dim>1</dim>
          <dim>1024</dim>
          <dim>19</dim>
          <dim>19</dim>
        </port>
      </output>
    </layer>
    <layer name="Convolution_stage3_unit19_conv1" type="Convolution" id="211" precision="FP16">
      <convolution_data stride-x="1" stride-y="1" pad-x="0" pad-y="0" kernel-x="1" kernel-y="1" output="256" group="1"/>
      <input>
        <port id="446">
          <dim>1</dim>
          <dim>1024</dim>
          <dim>19</dim>
          <dim>19</dim>
        </port>
      </input>
      <output>
        <port id="445">
          <dim>1</dim>
          <dim>256</dim>
          <dim>19</dim>
          <dim>19</dim>
        </port>
      </output>
      <weights size="524288" offset="43870732"/>
      <biases size="512" offset="44395020"/>
    </layer>
    <layer name="ReLU_stage3_unit19_relu2" type="ReLU" id="212" precision="FP16">
      <input>
        <port id="448">
          <dim>1</dim>
          <dim>256</dim>
          <dim>19</dim>
          <dim>19</dim>
        </port>
      </input>
      <output>
        <port id="447">
          <dim>1</dim>
          <dim>256</dim>
          <dim>19</dim>
          <dim>19</dim>
        </port>
      </output>
    </layer>
    <layer name="Convolution_stage3_unit19_conv2" type="Convolution" id="213" precision="FP16">
      <convolution_data stride-x="1" stride-y="1" pad-x="1" pad-y="1" kernel-x="3" kernel-y="3" output="256" group="1"/>
      <input>
        <port id="450">
          <dim>1</dim>
          <dim>256</dim>
          <dim>19</dim>
          <dim>19</dim>
        </port>
      </input>
      <output>
        <port id="449">
          <dim>1</dim>
          <dim>256</dim>
          <dim>19</dim>
          <dim>19</dim>
        </port>
      </output>
      <weights size="1179648" offset="44395532"/>
      <biases size="512" offset="45575180"/>
    </layer>
    <layer name="ReLU_stage3_unit19_relu3" type="ReLU" id="214" precision="FP16">
      <input>
        <port id="452">
          <dim>1</dim>
          <dim>256</dim>
          <dim>19</dim>
          <dim>19</dim>
        </port>
      </input>
      <output>
        <port id="451">
          <dim>1</dim>
          <dim>256</dim>
          <dim>19</dim>
          <dim>19</dim>
        </port>
      </output>
    </layer>
    <layer name="Convolution_stage3_unit19_conv3" type="Convolution" id="215" precision="FP16">
      <convolution_data stride-x="1" stride-y="1" pad-x="0" pad-y="0" kernel-x="1" kernel-y="1" output="1024" group="1"/>
      <input>
        <port id="454">
          <dim>1</dim>
          <dim>256</dim>
          <dim>19</dim>
          <dim>19</dim>
        </port>
      </input>
      <output>
        <port id="453">
          <dim>1</dim>
          <dim>1024</dim>
          <dim>19</dim>
          <dim>19</dim>
        </port>
      </output>
      <weights size="524288" offset="45575692"/>
    </layer>
    <layer name="Eltwise__plus25" type="Eltwise" id="216" precision="FP16">
      <elementwise_data operation=""/>
      <input>
        <port id="456">
          <dim>1</dim>
          <dim>1024</dim>
          <dim>19</dim>
          <dim>19</dim>
        </port>
        <port id="457">
          <dim>1</dim>
          <dim>1024</dim>
          <dim>19</dim>
          <dim>19</dim>
        </port>
      </input>
      <output>
        <port id="455">
          <dim>1</dim>
          <dim>1024</dim>
          <dim>19</dim>
          <dim>19</dim>
        </port>
      </output>
    </layer>
    <layer name="ScaleShift_stage3_unit20_bn1" type="ScaleShift" id="217" precision="FP16">
      <input>
        <port id="459">
          <dim>1</dim>
          <dim>1024</dim>
          <dim>19</dim>
          <dim>19</dim>
        </port>
      </input>
      <output>
        <port id="458">
          <dim>1</dim>
          <dim>1024</dim>
          <dim>19</dim>
          <dim>19</dim>
        </port>
      </output>
      <weights size="2048" offset="46099980"/>
      <biases size="2048" offset="46102028"/>
    </layer>
    <layer name="ReLU_stage3_unit20_relu1" type="ReLU" id="218" precision="FP16">
      <input>
        <port id="461">
          <dim>1</dim>
          <dim>1024</dim>
          <dim>19</dim>
          <dim>19</dim>
        </port>
      </input>
      <output>
        <port id="460">
          <dim>1</dim>
          <dim>1024</dim>
          <dim>19</dim>
          <dim>19</dim>
        </port>
      </output>
    </layer>
    <layer name="Convolution_stage3_unit20_conv1" type="Convolution" id="219" precision="FP16">
      <convolution_data stride-x="1" stride-y="1" pad-x="0" pad-y="0" kernel-x="1" kernel-y="1" output="256" group="1"/>
      <input>
        <port id="463">
          <dim>1</dim>
          <dim>1024</dim>
          <dim>19</dim>
          <dim>19</dim>
        </port>
      </input>
      <output>
        <port id="462">
          <dim>1</dim>
          <dim>256</dim>
          <dim>19</dim>
          <dim>19</dim>
        </port>
      </output>
      <weights size="524288" offset="46104076"/>
      <biases size="512" offset="46628364"/>
    </layer>
    <layer name="ReLU_stage3_unit20_relu2" type="ReLU" id="220" precision="FP16">
      <input>
        <port id="465">
          <dim>1</dim>
          <dim>256</dim>
          <dim>19</dim>
          <dim>19</dim>
        </port>
      </input>
      <output>
        <port id="464">
          <dim>1</dim>
          <dim>256</dim>
          <dim>19</dim>
          <dim>19</dim>
        </port>
      </output>
    </layer>
    <layer name="Convolution_stage3_unit20_conv2" type="Convolution" id="221" precision="FP16">
      <convolution_data stride-x="1" stride-y="1" pad-x="1" pad-y="1" kernel-x="3" kernel-y="3" output="256" group="1"/>
      <input>
        <port id="467">
          <dim>1</dim>
          <dim>256</dim>
          <dim>19</dim>
          <dim>19</dim>
        </port>
      </input>
      <output>
        <port id="466">
          <dim>1</dim>
          <dim>256</dim>
          <dim>19</dim>
          <dim>19</dim>
        </port>
      </output>
      <weights size="1179648" offset="46628876"/>
      <biases size="512" offset="47808524"/>
    </layer>
    <layer name="ReLU_stage3_unit20_relu3" type="ReLU" id="222" precision="FP16">
      <input>
        <port id="469">
          <dim>1</dim>
          <dim>256</dim>
          <dim>19</dim>
          <dim>19</dim>
        </port>
      </input>
      <output>
        <port id="468">
          <dim>1</dim>
          <dim>256</dim>
          <dim>19</dim>
          <dim>19</dim>
        </port>
      </output>
    </layer>
    <layer name="Convolution_stage3_unit20_conv3" type="Convolution" id="223" precision="FP16">
      <convolution_data stride-x="1" stride-y="1" pad-x="0" pad-y="0" kernel-x="1" kernel-y="1" output="1024" group="1"/>
      <input>
        <port id="471">
          <dim>1</dim>
          <dim>256</dim>
          <dim>19</dim>
          <dim>19</dim>
        </port>
      </input>
      <output>
        <port id="470">
          <dim>1</dim>
          <dim>1024</dim>
          <dim>19</dim>
          <dim>19</dim>
        </port>
      </output>
      <weights size="524288" offset="47809036"/>
    </layer>
    <layer name="Eltwise__plus26" type="Eltwise" id="224" precision="FP16">
      <elementwise_data operation=""/>
      <input>
        <port id="473">
          <dim>1</dim>
          <dim>1024</dim>
          <dim>19</dim>
          <dim>19</dim>
        </port>
        <port id="474">
          <dim>1</dim>
          <dim>1024</dim>
          <dim>19</dim>
          <dim>19</dim>
        </port>
      </input>
      <output>
        <port id="472">
          <dim>1</dim>
          <dim>1024</dim>
          <dim>19</dim>
          <dim>19</dim>
        </port>
      </output>
    </layer>
    <layer name="ScaleShift_stage3_unit21_bn1" type="ScaleShift" id="225" precision="FP16">
      <input>
        <port id="476">
          <dim>1</dim>
          <dim>1024</dim>
          <dim>19</dim>
          <dim>19</dim>
        </port>
      </input>
      <output>
        <port id="475">
          <dim>1</dim>
          <dim>1024</dim>
          <dim>19</dim>
          <dim>19</dim>
        </port>
      </output>
      <weights size="2048" offset="48333324"/>
      <biases size="2048" offset="48335372"/>
    </layer>
    <layer name="ReLU_stage3_unit21_relu1" type="ReLU" id="226" precision="FP16">
      <input>
        <port id="478">
          <dim>1</dim>
          <dim>1024</dim>
          <dim>19</dim>
          <dim>19</dim>
        </port>
      </input>
      <output>
        <port id="477">
          <dim>1</dim>
          <dim>1024</dim>
          <dim>19</dim>
          <dim>19</dim>
        </port>
      </output>
    </layer>
    <layer name="Convolution_stage3_unit21_conv1" type="Convolution" id="227" precision="FP16">
      <convolution_data stride-x="1" stride-y="1" pad-x="0" pad-y="0" kernel-x="1" kernel-y="1" output="256" group="1"/>
      <input>
        <port id="480">
          <dim>1</dim>
          <dim>1024</dim>
          <dim>19</dim>
          <dim>19</dim>
        </port>
      </input>
      <output>
        <port id="479">
          <dim>1</dim>
          <dim>256</dim>
          <dim>19</dim>
          <dim>19</dim>
        </port>
      </output>
      <weights size="524288" offset="48337420"/>
      <biases size="512" offset="48861708"/>
    </layer>
    <layer name="ReLU_stage3_unit21_relu2" type="ReLU" id="228" precision="FP16">
      <input>
        <port id="482">
          <dim>1</dim>
          <dim>256</dim>
          <dim>19</dim>
          <dim>19</dim>
        </port>
      </input>
      <output>
        <port id="481">
          <dim>1</dim>
          <dim>256</dim>
          <dim>19</dim>
          <dim>19</dim>
        </port>
      </output>
    </layer>
    <layer name="Convolution_stage3_unit21_conv2" type="Convolution" id="229" precision="FP16">
      <convolution_data stride-x="1" stride-y="1" pad-x="1" pad-y="1" kernel-x="3" kernel-y="3" output="256" group="1"/>
      <input>
        <port id="484">
          <dim>1</dim>
          <dim>256</dim>
          <dim>19</dim>
          <dim>19</dim>
        </port>
      </input>
      <output>
        <port id="483">
          <dim>1</dim>
          <dim>256</dim>
          <dim>19</dim>
          <dim>19</dim>
        </port>
      </output>
      <weights size="1179648" offset="48862220"/>
      <biases size="512" offset="50041868"/>
    </layer>
    <layer name="ReLU_stage3_unit21_relu3" type="ReLU" id="230" precision="FP16">
      <input>
        <port id="486">
          <dim>1</dim>
          <dim>256</dim>
          <dim>19</dim>
          <dim>19</dim>
        </port>
      </input>
      <output>
        <port id="485">
          <dim>1</dim>
          <dim>256</dim>
          <dim>19</dim>
          <dim>19</dim>
        </port>
      </output>
    </layer>
    <layer name="Convolution_stage3_unit21_conv3" type="Convolution" id="231" precision="FP16">
      <convolution_data stride-x="1" stride-y="1" pad-x="0" pad-y="0" kernel-x="1" kernel-y="1" output="1024" group="1"/>
      <input>
        <port id="488">
          <dim>1</dim>
          <dim>256</dim>
          <dim>19</dim>
          <dim>19</dim>
        </port>
      </input>
      <output>
        <port id="487">
          <dim>1</dim>
          <dim>1024</dim>
          <dim>19</dim>
          <dim>19</dim>
        </port>
      </output>
      <weights size="524288" offset="50042380"/>
    </layer>
    <layer name="Eltwise__plus27" type="Eltwise" id="232" precision="FP16">
      <elementwise_data operation=""/>
      <input>
        <port id="490">
          <dim>1</dim>
          <dim>1024</dim>
          <dim>19</dim>
          <dim>19</dim>
        </port>
        <port id="491">
          <dim>1</dim>
          <dim>1024</dim>
          <dim>19</dim>
          <dim>19</dim>
        </port>
      </input>
      <output>
        <port id="489">
          <dim>1</dim>
          <dim>1024</dim>
          <dim>19</dim>
          <dim>19</dim>
        </port>
      </output>
    </layer>
    <layer name="ScaleShift_stage3_unit22_bn1" type="ScaleShift" id="233" precision="FP16">
      <input>
        <port id="493">
          <dim>1</dim>
          <dim>1024</dim>
          <dim>19</dim>
          <dim>19</dim>
        </port>
      </input>
      <output>
        <port id="492">
          <dim>1</dim>
          <dim>1024</dim>
          <dim>19</dim>
          <dim>19</dim>
        </port>
      </output>
      <weights size="2048" offset="50566668"/>
      <biases size="2048" offset="50568716"/>
    </layer>
    <layer name="ReLU_stage3_unit22_relu1" type="ReLU" id="234" precision="FP16">
      <input>
        <port id="495">
          <dim>1</dim>
          <dim>1024</dim>
          <dim>19</dim>
          <dim>19</dim>
        </port>
      </input>
      <output>
        <port id="494">
          <dim>1</dim>
          <dim>1024</dim>
          <dim>19</dim>
          <dim>19</dim>
        </port>
      </output>
    </layer>
    <layer name="Convolution_stage3_unit22_conv1" type="Convolution" id="235" precision="FP16">
      <convolution_data stride-x="1" stride-y="1" pad-x="0" pad-y="0" kernel-x="1" kernel-y="1" output="256" group="1"/>
      <input>
        <port id="497">
          <dim>1</dim>
          <dim>1024</dim>
          <dim>19</dim>
          <dim>19</dim>
        </port>
      </input>
      <output>
        <port id="496">
          <dim>1</dim>
          <dim>256</dim>
          <dim>19</dim>
          <dim>19</dim>
        </port>
      </output>
      <weights size="524288" offset="50570764"/>
      <biases size="512" offset="51095052"/>
    </layer>
    <layer name="ReLU_stage3_unit22_relu2" type="ReLU" id="236" precision="FP16">
      <input>
        <port id="499">
          <dim>1</dim>
          <dim>256</dim>
          <dim>19</dim>
          <dim>19</dim>
        </port>
      </input>
      <output>
        <port id="498">
          <dim>1</dim>
          <dim>256</dim>
          <dim>19</dim>
          <dim>19</dim>
        </port>
      </output>
    </layer>
    <layer name="Convolution_stage3_unit22_conv2" type="Convolution" id="237" precision="FP16">
      <convolution_data stride-x="1" stride-y="1" pad-x="1" pad-y="1" kernel-x="3" kernel-y="3" output="256" group="1"/>
      <input>
        <port id="501">
          <dim>1</dim>
          <dim>256</dim>
          <dim>19</dim>
          <dim>19</dim>
        </port>
      </input>
      <output>
        <port id="500">
          <dim>1</dim>
          <dim>256</dim>
          <dim>19</dim>
          <dim>19</dim>
        </port>
      </output>
      <weights size="1179648" offset="51095564"/>
      <biases size="512" offset="52275212"/>
    </layer>
    <layer name="ReLU_stage3_unit22_relu3" type="ReLU" id="238" precision="FP16">
      <input>
        <port id="503">
          <dim>1</dim>
          <dim>256</dim>
          <dim>19</dim>
          <dim>19</dim>
        </port>
      </input>
      <output>
        <port id="502">
          <dim>1</dim>
          <dim>256</dim>
          <dim>19</dim>
          <dim>19</dim>
        </port>
      </output>
    </layer>
    <layer name="Convolution_stage3_unit22_conv3" type="Convolution" id="239" precision="FP16">
      <convolution_data stride-x="1" stride-y="1" pad-x="0" pad-y="0" kernel-x="1" kernel-y="1" output="1024" group="1"/>
      <input>
        <port id="505">
          <dim>1</dim>
          <dim>256</dim>
          <dim>19</dim>
          <dim>19</dim>
        </port>
      </input>
      <output>
        <port id="504">
          <dim>1</dim>
          <dim>1024</dim>
          <dim>19</dim>
          <dim>19</dim>
        </port>
      </output>
      <weights size="524288" offset="52275724"/>
    </layer>
    <layer name="Eltwise__plus28" type="Eltwise" id="240" precision="FP16">
      <elementwise_data operation=""/>
      <input>
        <port id="507">
          <dim>1</dim>
          <dim>1024</dim>
          <dim>19</dim>
          <dim>19</dim>
        </port>
        <port id="508">
          <dim>1</dim>
          <dim>1024</dim>
          <dim>19</dim>
          <dim>19</dim>
        </port>
      </input>
      <output>
        <port id="506">
          <dim>1</dim>
          <dim>1024</dim>
          <dim>19</dim>
          <dim>19</dim>
        </port>
      </output>
    </layer>
    <layer name="ScaleShift_stage3_unit23_bn1" type="ScaleShift" id="241" precision="FP16">
      <input>
        <port id="510">
          <dim>1</dim>
          <dim>1024</dim>
          <dim>19</dim>
          <dim>19</dim>
        </port>
      </input>
      <output>
        <port id="509">
          <dim>1</dim>
          <dim>1024</dim>
          <dim>19</dim>
          <dim>19</dim>
        </port>
      </output>
      <weights size="2048" offset="52800012"/>
      <biases size="2048" offset="52802060"/>
    </layer>
    <layer name="ReLU_stage3_unit23_relu1" type="ReLU" id="242" precision="FP16">
      <input>
        <port id="512">
          <dim>1</dim>
          <dim>1024</dim>
          <dim>19</dim>
          <dim>19</dim>
        </port>
      </input>
      <output>
        <port id="511">
          <dim>1</dim>
          <dim>1024</dim>
          <dim>19</dim>
          <dim>19</dim>
        </port>
      </output>
    </layer>
    <layer name="Convolution_stage3_unit23_conv1" type="Convolution" id="243" precision="FP16">
      <convolution_data stride-x="1" stride-y="1" pad-x="0" pad-y="0" kernel-x="1" kernel-y="1" output="256" group="1"/>
      <input>
        <port id="514">
          <dim>1</dim>
          <dim>1024</dim>
          <dim>19</dim>
          <dim>19</dim>
        </port>
      </input>
      <output>
        <port id="513">
          <dim>1</dim>
          <dim>256</dim>
          <dim>19</dim>
          <dim>19</dim>
        </port>
      </output>
      <weights size="524288" offset="52804108"/>
      <biases size="512" offset="53328396"/>
    </layer>
    <layer name="ReLU_stage3_unit23_relu2" type="ReLU" id="244" precision="FP16">
      <input>
        <port id="516">
          <dim>1</dim>
          <dim>256</dim>
          <dim>19</dim>
          <dim>19</dim>
        </port>
      </input>
      <output>
        <port id="515">
          <dim>1</dim>
          <dim>256</dim>
          <dim>19</dim>
          <dim>19</dim>
        </port>
      </output>
    </layer>
    <layer name="Convolution_stage3_unit23_conv2" type="Convolution" id="245" precision="FP16">
      <convolution_data stride-x="1" stride-y="1" pad-x="1" pad-y="1" kernel-x="3" kernel-y="3" output="256" group="1"/>
      <input>
        <port id="518">
          <dim>1</dim>
          <dim>256</dim>
          <dim>19</dim>
          <dim>19</dim>
        </port>
      </input>
      <output>
        <port id="517">
          <dim>1</dim>
          <dim>256</dim>
          <dim>19</dim>
          <dim>19</dim>
        </port>
      </output>
      <weights size="1179648" offset="53328908"/>
      <biases size="512" offset="54508556"/>
    </layer>
    <layer name="ReLU_stage3_unit23_relu3" type="ReLU" id="246" precision="FP16">
      <input>
        <port id="520">
          <dim>1</dim>
          <dim>256</dim>
          <dim>19</dim>
          <dim>19</dim>
        </port>
      </input>
      <output>
        <port id="519">
          <dim>1</dim>
          <dim>256</dim>
          <dim>19</dim>
          <dim>19</dim>
        </port>
      </output>
    </layer>
    <layer name="Convolution_stage3_unit23_conv3" type="Convolution" id="247" precision="FP16">
      <convolution_data stride-x="1" stride-y="1" pad-x="0" pad-y="0" kernel-x="1" kernel-y="1" output="1024" group="1"/>
      <input>
        <port id="522">
          <dim>1</dim>
          <dim>256</dim>
          <dim>19</dim>
          <dim>19</dim>
        </port>
      </input>
      <output>
        <port id="521">
          <dim>1</dim>
          <dim>1024</dim>
          <dim>19</dim>
          <dim>19</dim>
        </port>
      </output>
      <weights size="524288" offset="54509068"/>
    </layer>
    <layer name="Eltwise__plus29" type="Eltwise" id="248" precision="FP16">
      <elementwise_data operation=""/>
      <input>
        <port id="524">
          <dim>1</dim>
          <dim>1024</dim>
          <dim>19</dim>
          <dim>19</dim>
        </port>
        <port id="525">
          <dim>1</dim>
          <dim>1024</dim>
          <dim>19</dim>
          <dim>19</dim>
        </port>
      </input>
      <output>
        <port id="523">
          <dim>1</dim>
          <dim>1024</dim>
          <dim>19</dim>
          <dim>19</dim>
        </port>
      </output>
    </layer>
    <layer name="ScaleShift_stage4_unit1_bn1" type="ScaleShift" id="249" precision="FP16">
      <input>
        <port id="527">
          <dim>1</dim>
          <dim>1024</dim>
          <dim>19</dim>
          <dim>19</dim>
        </port>
      </input>
      <output>
        <port id="526">
          <dim>1</dim>
          <dim>1024</dim>
          <dim>19</dim>
          <dim>19</dim>
        </port>
      </output>
      <weights size="2048" offset="55033356"/>
      <biases size="2048" offset="55035404"/>
    </layer>
    <layer name="ReLU_stage4_unit1_relu1" type="ReLU" id="250" precision="FP16">
      <input>
        <port id="529">
          <dim>1</dim>
          <dim>1024</dim>
          <dim>19</dim>
          <dim>19</dim>
        </port>
      </input>
      <output>
        <port id="528">
          <dim>1</dim>
          <dim>1024</dim>
          <dim>19</dim>
          <dim>19</dim>
        </port>
      </output>
    </layer>
    <layer name="Convolution_stage4_unit1_conv1" type="Convolution" id="251" precision="FP16">
      <convolution_data stride-x="1" stride-y="1" pad-x="0" pad-y="0" kernel-x="1" kernel-y="1" output="512" group="1"/>
      <input>
        <port id="531">
          <dim>1</dim>
          <dim>1024</dim>
          <dim>19</dim>
          <dim>19</dim>
        </port>
      </input>
      <output>
        <port id="530">
          <dim>1</dim>
          <dim>512</dim>
          <dim>19</dim>
          <dim>19</dim>
        </port>
      </output>
      <weights size="1048576" offset="55037452"/>
      <biases size="1024" offset="56086028"/>
    </layer>
    <layer name="ReLU_stage4_unit1_relu2" type="ReLU" id="252" precision="FP16">
      <input>
        <port id="533">
          <dim>1</dim>
          <dim>512</dim>
          <dim>19</dim>
          <dim>19</dim>
        </port>
      </input>
      <output>
        <port id="532">
          <dim>1</dim>
          <dim>512</dim>
          <dim>19</dim>
          <dim>19</dim>
        </port>
      </output>
    </layer>
    <layer name="Convolution_stage4_unit1_conv2" type="Convolution" id="253" precision="FP16">
      <convolution_data stride-x="2" stride-y="2" pad-x="1" pad-y="1" kernel-x="3" kernel-y="3" output="512" group="1"/>
      <input>
        <port id="535">
          <dim>1</dim>
          <dim>512</dim>
          <dim>19</dim>
          <dim>19</dim>
        </port>
      </input>
      <output>
        <port id="534">
          <dim>1</dim>
          <dim>512</dim>
          <dim>10</dim>
          <dim>10</dim>
        </port>
      </output>
      <weights size="4718592" offset="56087052"/>
      <biases size="1024" offset="60805644"/>
    </layer>
    <layer name="ReLU_stage4_unit1_relu3" type="ReLU" id="254" precision="FP16">
      <input>
        <port id="537">
          <dim>1</dim>
          <dim>512</dim>
          <dim>10</dim>
          <dim>10</dim>
        </port>
      </input>
      <output>
        <port id="536">
          <dim>1</dim>
          <dim>512</dim>
          <dim>10</dim>
          <dim>10</dim>
        </port>
      </output>
    </layer>
    <layer name="Convolution_stage4_unit1_conv3" type="Convolution" id="255" precision="FP16">
      <convolution_data stride-x="1" stride-y="1" pad-x="0" pad-y="0" kernel-x="1" kernel-y="1" output="2048" group="1"/>
      <input>
        <port id="539">
          <dim>1</dim>
          <dim>512</dim>
          <dim>10</dim>
          <dim>10</dim>
        </port>
      </input>
      <output>
        <port id="538">
          <dim>1</dim>
          <dim>2048</dim>
          <dim>10</dim>
          <dim>10</dim>
        </port>
      </output>
      <weights size="2097152" offset="60806668"/>
    </layer>
    <layer name="Convolution_stage4_unit1_sc" type="Convolution" id="256" precision="FP16">
      <convolution_data stride-x="2" stride-y="2" pad-x="0" pad-y="0" kernel-x="1" kernel-y="1" output="2048" group="1"/>
      <input>
        <port id="541">
          <dim>1</dim>
          <dim>1024</dim>
          <dim>19</dim>
          <dim>19</dim>
        </port>
      </input>
      <output>
        <port id="540">
          <dim>1</dim>
          <dim>2048</dim>
          <dim>10</dim>
          <dim>10</dim>
        </port>
      </output>
      <weights size="4194304" offset="62903820"/>
    </layer>
    <layer name="Eltwise__plus30" type="Eltwise" id="257" precision="FP16">
      <elementwise_data operation=""/>
      <input>
        <port id="543">
          <dim>1</dim>
          <dim>2048</dim>
          <dim>10</dim>
          <dim>10</dim>
        </port>
        <port id="544">
          <dim>1</dim>
          <dim>2048</dim>
          <dim>10</dim>
          <dim>10</dim>
        </port>
      </input>
      <output>
        <port id="542">
          <dim>1</dim>
          <dim>2048</dim>
          <dim>10</dim>
          <dim>10</dim>
        </port>
      </output>
    </layer>
    <layer name="ScaleShift_stage4_unit2_bn1" type="ScaleShift" id="258" precision="FP16">
      <input>
        <port id="546">
          <dim>1</dim>
          <dim>2048</dim>
          <dim>10</dim>
          <dim>10</dim>
        </port>
      </input>
      <output>
        <port id="545">
          <dim>1</dim>
          <dim>2048</dim>
          <dim>10</dim>
          <dim>10</dim>
        </port>
      </output>
      <weights size="4096" offset="67098124"/>
      <biases size="4096" offset="67102220"/>
    </layer>
    <layer name="ReLU_stage4_unit2_relu1" type="ReLU" id="259" precision="FP16">
      <input>
        <port id="548">
          <dim>1</dim>
          <dim>2048</dim>
          <dim>10</dim>
          <dim>10</dim>
        </port>
      </input>
      <output>
        <port id="547">
          <dim>1</dim>
          <dim>2048</dim>
          <dim>10</dim>
          <dim>10</dim>
        </port>
      </output>
    </layer>
    <layer name="Convolution_stage4_unit2_conv1" type="Convolution" id="260" precision="FP16">
      <convolution_data stride-x="1" stride-y="1" pad-x="0" pad-y="0" kernel-x="1" kernel-y="1" output="512" group="1"/>
      <input>
        <port id="550">
          <dim>1</dim>
          <dim>2048</dim>
          <dim>10</dim>
          <dim>10</dim>
        </port>
      </input>
      <output>
        <port id="549">
          <dim>1</dim>
          <dim>512</dim>
          <dim>10</dim>
          <dim>10</dim>
        </port>
      </output>
      <weights size="2097152" offset="67106316"/>
      <biases size="1024" offset="69203468"/>
    </layer>
    <layer name="ReLU_stage4_unit2_relu2" type="ReLU" id="261" precision="FP16">
      <input>
        <port id="552">
          <dim>1</dim>
          <dim>512</dim>
          <dim>10</dim>
          <dim>10</dim>
        </port>
      </input>
      <output>
        <port id="551">
          <dim>1</dim>
          <dim>512</dim>
          <dim>10</dim>
          <dim>10</dim>
        </port>
      </output>
    </layer>
    <layer name="Convolution_stage4_unit2_conv2" type="Convolution" id="262" precision="FP16">
      <convolution_data stride-x="1" stride-y="1" pad-x="1" pad-y="1" kernel-x="3" kernel-y="3" output="512" group="1"/>
      <input>
        <port id="554">
          <dim>1</dim>
          <dim>512</dim>
          <dim>10</dim>
          <dim>10</dim>
        </port>
      </input>
      <output>
        <port id="553">
          <dim>1</dim>
          <dim>512</dim>
          <dim>10</dim>
          <dim>10</dim>
        </port>
      </output>
      <weights size="4718592" offset="69204492"/>
      <biases size="1024" offset="73923084"/>
    </layer>
    <layer name="ReLU_stage4_unit2_relu3" type="ReLU" id="263" precision="FP16">
      <input>
        <port id="556">
          <dim>1</dim>
          <dim>512</dim>
          <dim>10</dim>
          <dim>10</dim>
        </port>
      </input>
      <output>
        <port id="555">
          <dim>1</dim>
          <dim>512</dim>
          <dim>10</dim>
          <dim>10</dim>
        </port>
      </output>
    </layer>
    <layer name="Convolution_stage4_unit2_conv3" type="Convolution" id="264" precision="FP16">
      <convolution_data stride-x="1" stride-y="1" pad-x="0" pad-y="0" kernel-x="1" kernel-y="1" output="2048" group="1"/>
      <input>
        <port id="558">
          <dim>1</dim>
          <dim>512</dim>
          <dim>10</dim>
          <dim>10</dim>
        </port>
      </input>
      <output>
        <port id="557">
          <dim>1</dim>
          <dim>2048</dim>
          <dim>10</dim>
          <dim>10</dim>
        </port>
      </output>
      <weights size="2097152" offset="73924108"/>
    </layer>
    <layer name="Eltwise__plus31" type="Eltwise" id="265" precision="FP16">
      <elementwise_data operation=""/>
      <input>
        <port id="560">
          <dim>1</dim>
          <dim>2048</dim>
          <dim>10</dim>
          <dim>10</dim>
        </port>
        <port id="561">
          <dim>1</dim>
          <dim>2048</dim>
          <dim>10</dim>
          <dim>10</dim>
        </port>
      </input>
      <output>
        <port id="559">
          <dim>1</dim>
          <dim>2048</dim>
          <dim>10</dim>
          <dim>10</dim>
        </port>
      </output>
    </layer>
    <layer name="ScaleShift_stage4_unit3_bn1" type="ScaleShift" id="266" precision="FP16">
      <input>
        <port id="563">
          <dim>1</dim>
          <dim>2048</dim>
          <dim>10</dim>
          <dim>10</dim>
        </port>
      </input>
      <output>
        <port id="562">
          <dim>1</dim>
          <dim>2048</dim>
          <dim>10</dim>
          <dim>10</dim>
        </port>
      </output>
      <weights size="4096" offset="76021260"/>
      <biases size="4096" offset="76025356"/>
    </layer>
    <layer name="ReLU_stage4_unit3_relu1" type="ReLU" id="267" precision="FP16">
      <input>
        <port id="565">
          <dim>1</dim>
          <dim>2048</dim>
          <dim>10</dim>
          <dim>10</dim>
        </port>
      </input>
      <output>
        <port id="564">
          <dim>1</dim>
          <dim>2048</dim>
          <dim>10</dim>
          <dim>10</dim>
        </port>
      </output>
    </layer>
    <layer name="Convolution_stage4_unit3_conv1" type="Convolution" id="268" precision="FP16">
      <convolution_data stride-x="1" stride-y="1" pad-x="0" pad-y="0" kernel-x="1" kernel-y="1" output="512" group="1"/>
      <input>
        <port id="567">
          <dim>1</dim>
          <dim>2048</dim>
          <dim>10</dim>
          <dim>10</dim>
        </port>
      </input>
      <output>
        <port id="566">
          <dim>1</dim>
          <dim>512</dim>
          <dim>10</dim>
          <dim>10</dim>
        </port>
      </output>
      <weights size="2097152" offset="76029452"/>
      <biases size="1024" offset="78126604"/>
    </layer>
    <layer name="ReLU_stage4_unit3_relu2" type="ReLU" id="269" precision="FP16">
      <input>
        <port id="569">
          <dim>1</dim>
          <dim>512</dim>
          <dim>10</dim>
          <dim>10</dim>
        </port>
      </input>
      <output>
        <port id="568">
          <dim>1</dim>
          <dim>512</dim>
          <dim>10</dim>
          <dim>10</dim>
        </port>
      </output>
    </layer>
    <layer name="Convolution_stage4_unit3_conv2" type="Convolution" id="270" precision="FP16">
      <convolution_data stride-x="1" stride-y="1" pad-x="1" pad-y="1" kernel-x="3" kernel-y="3" output="512" group="1"/>
      <input>
        <port id="571">
          <dim>1</dim>
          <dim>512</dim>
          <dim>10</dim>
          <dim>10</dim>
        </port>
      </input>
      <output>
        <port id="570">
          <dim>1</dim>
          <dim>512</dim>
          <dim>10</dim>
          <dim>10</dim>
        </port>
      </output>
      <weights size="4718592" offset="78127628"/>
      <biases size="1024" offset="82846220"/>
    </layer>
    <layer name="ReLU_stage4_unit3_relu3" type="ReLU" id="271" precision="FP16">
      <input>
        <port id="573">
          <dim>1</dim>
          <dim>512</dim>
          <dim>10</dim>
          <dim>10</dim>
        </port>
      </input>
      <output>
        <port id="572">
          <dim>1</dim>
          <dim>512</dim>
          <dim>10</dim>
          <dim>10</dim>
        </port>
      </output>
    </layer>
    <layer name="Convolution_stage4_unit3_conv3" type="Convolution" id="272" precision="FP16">
      <convolution_data stride-x="1" stride-y="1" pad-x="0" pad-y="0" kernel-x="1" kernel-y="1" output="2048" group="1"/>
      <input>
        <port id="575">
          <dim>1</dim>
          <dim>512</dim>
          <dim>10</dim>
          <dim>10</dim>
        </port>
      </input>
      <output>
        <port id="574">
          <dim>1</dim>
          <dim>2048</dim>
          <dim>10</dim>
          <dim>10</dim>
        </port>
      </output>
      <weights size="2097152" offset="82847244"/>
    </layer>
    <layer name="Eltwise__plus32" type="Eltwise" id="273" precision="FP16">
      <elementwise_data operation=""/>
      <input>
        <port id="577">
          <dim>1</dim>
          <dim>2048</dim>
          <dim>10</dim>
          <dim>10</dim>
        </port>
        <port id="578">
          <dim>1</dim>
          <dim>2048</dim>
          <dim>10</dim>
          <dim>10</dim>
        </port>
      </input>
      <output>
        <port id="576">
          <dim>1</dim>
          <dim>2048</dim>
          <dim>10</dim>
          <dim>10</dim>
        </port>
      </output>
    </layer>
    <layer name="ScaleShift_bn1" type="ScaleShift" id="274" precision="FP16">
      <input>
        <port id="580">
          <dim>1</dim>
          <dim>2048</dim>
          <dim>10</dim>
          <dim>10</dim>
        </port>
      </input>
      <output>
        <port id="579">
          <dim>1</dim>
          <dim>2048</dim>
          <dim>10</dim>
          <dim>10</dim>
        </port>
      </output>
      <weights size="4096" offset="84944396"/>
      <biases size="4096" offset="84948492"/>
    </layer>
    <layer name="ReLU_relu1" type="ReLU" id="275" precision="FP16">
      <input>
        <port id="582">
          <dim>1</dim>
          <dim>2048</dim>
          <dim>10</dim>
          <dim>10</dim>
        </port>
      </input>
      <output>
        <port id="581">
          <dim>1</dim>
          <dim>2048</dim>
          <dim>10</dim>
          <dim>10</dim>
        </port>
      </output>
    </layer>
    <layer name="Pooling_pool1" type="Pooling" id="276" precision="FP16">
      <pooling_data stride-x="1" stride-y="1" pad-x="0" pad-y="0" kernel-x="10" kernel-y="10" rounding-type="ceil" pool-method="avg"/>
      <input>
        <port id="584">
          <dim>1</dim>
          <dim>2048</dim>
          <dim>10</dim>
          <dim>10</dim>
        </port>
      </input>
      <output>
        <port id="583">
          <dim>1</dim>
          <dim>2048</dim>
          <dim>1</dim>
          <dim>1</dim>
        </port>
      </output>
    </layer>
    <layer name="Reshape_flatten0" type="Reshape" id="277" precision="FP16">
      <data axis="0" num_axes="-1" dim="1,2048"/>
      <input>
        <port id="586">
          <dim>1</dim>
          <dim>2048</dim>
          <dim>1</dim>
          <dim>1</dim>
        </port>
      </input>
      <output>
        <port id="585">
          <dim>1</dim>
          <dim>2048</dim>
        </port>
      </output>
    </layer>
    <layer name="FullyConnected_newlayer_fc2" type="FullyConnected" id="278" precision="FP16">
      <fc_data out-size="2"/>
      <input>
        <port id="588">
          <dim>1</dim>
          <dim>2048</dim>
        </port>
      </input>
      <output>
        <port id="587">
          <dim>1</dim>
          <dim>2</dim>
        </port>
      </output>
      <weights size="8192" offset="84952588"/>
      <biases size="4" offset="84960780"/>
    </layer>
    <layer name="SoftMax_softmax" type="SoftMax" id="279" precision="FP16">
      <data axis="1"/>
      <input>
        <port id="590">
          <dim>1</dim>
          <dim>2</dim>
        </port>
      </input>
      <output>
        <port id="589">
          <dim>1</dim>
          <dim>2</dim>
        </port>
      </output>
    </layer>
  </layers>
  <edges>
    <edge from-layer="1" from-port="1" to-layer="2" to-port="3"/>
    <edge from-layer="2" from-port="2" to-layer="3" to-port="5"/>
    <edge from-layer="3" from-port="4" to-layer="4" to-port="7"/>
    <edge from-layer="4" from-port="6" to-layer="5" to-port="9"/>
    <edge from-layer="5" from-port="8" to-layer="6" to-port="11"/>
    <edge from-layer="6" from-port="10" to-layer="7" to-port="13"/>
    <edge from-layer="7" from-port="12" to-layer="8" to-port="15"/>
    <edge from-layer="8" from-port="14" to-layer="9" to-port="17"/>
    <edge from-layer="9" from-port="16" to-layer="10" to-port="19"/>
    <edge from-layer="10" from-port="18" to-layer="11" to-port="21"/>
    <edge from-layer="11" from-port="20" to-layer="12" to-port="23"/>
    <edge from-layer="7" from-port="12" to-layer="13" to-port="25"/>
    <edge from-layer="12" from-port="22" to-layer="14" to-port="27"/>
    <edge from-layer="13" from-port="24" to-layer="14" to-port="28"/>
    <edge from-layer="14" from-port="26" to-layer="15" to-port="30"/>
    <edge from-layer="15" from-port="29" to-layer="16" to-port="32"/>
    <edge from-layer="16" from-port="31" to-layer="17" to-port="34"/>
    <edge from-layer="17" from-port="33" to-layer="18" to-port="36"/>
    <edge from-layer="18" from-port="35" to-layer="19" to-port="38"/>
    <edge from-layer="19" from-port="37" to-layer="20" to-port="40"/>
    <edge from-layer="20" from-port="39" to-layer="21" to-port="42"/>
    <edge from-layer="21" from-port="41" to-layer="22" to-port="44"/>
    <edge from-layer="14" from-port="26" to-layer="22" to-port="45"/>
    <edge from-layer="22" from-port="43" to-layer="23" to-port="47"/>
    <edge from-layer="23" from-port="46" to-layer="24" to-port="49"/>
    <edge from-layer="24" from-port="48" to-layer="25" to-port="51"/>
    <edge from-layer="25" from-port="50" to-layer="26" to-port="53"/>
    <edge from-layer="26" from-port="52" to-layer="27" to-port="55"/>
    <edge from-layer="27" from-port="54" to-layer="28" to-port="57"/>
    <edge from-layer="28" from-port="56" to-layer="29" to-port="59"/>
    <edge from-layer="29" from-port="58" to-layer="30" to-port="61"/>
    <edge from-layer="22" from-port="43" to-layer="30" to-port="62"/>
    <edge from-layer="30" from-port="60" to-layer="31" to-port="64"/>
    <edge from-layer="31" from-port="63" to-layer="32" to-port="66"/>
    <edge from-layer="32" from-port="65" to-layer="33" to-port="68"/>
    <edge from-layer="33" from-port="67" to-layer="34" to-port="70"/>
    <edge from-layer="34" from-port="69" to-layer="35" to-port="72"/>
    <edge from-layer="35" from-port="71" to-layer="36" to-port="74"/>
    <edge from-layer="36" from-port="73" to-layer="37" to-port="76"/>
    <edge from-layer="32" from-port="65" to-layer="38" to-port="78"/>
    <edge from-layer="37" from-port="75" to-layer="39" to-port="80"/>
    <edge from-layer="38" from-port="77" to-layer="39" to-port="81"/>
    <edge from-layer="39" from-port="79" to-layer="40" to-port="83"/>
    <edge from-layer="40" from-port="82" to-layer="41" to-port="85"/>
    <edge from-layer="41" from-port="84" to-layer="42" to-port="87"/>
    <edge from-layer="42" from-port="86" to-layer="43" to-port="89"/>
    <edge from-layer="43" from-port="88" to-layer="44" to-port="91"/>
    <edge from-layer="44" from-port="90" to-layer="45" to-port="93"/>
    <edge from-layer="45" from-port="92" to-layer="46" to-port="95"/>
    <edge from-layer="46" from-port="94" to-layer="47" to-port="97"/>
    <edge from-layer="39" from-port="79" to-layer="47" to-port="98"/>
    <edge from-layer="47" from-port="96" to-layer="48" to-port="100"/>
    <edge from-layer="48" from-port="99" to-layer="49" to-port="102"/>
    <edge from-layer="49" from-port="101" to-layer="50" to-port="104"/>
    <edge from-layer="50" from-port="103" to-layer="51" to-port="106"/>
    <edge from-layer="51" from-port="105" to-layer="52" to-port="108"/>
    <edge from-layer="52" from-port="107" to-layer="53" to-port="110"/>
    <edge from-layer="53" from-port="109" to-layer="54" to-port="112"/>
    <edge from-layer="54" from-port="111" to-layer="55" to-port="114"/>
    <edge from-layer="47" from-port="96" to-layer="55" to-port="115"/>
    <edge from-layer="55" from-port="113" to-layer="56" to-port="117"/>
    <edge from-layer="56" from-port="116" to-layer="57" to-port="119"/>
    <edge from-layer="57" from-port="118" to-layer="58" to-port="121"/>
    <edge from-layer="58" from-port="120" to-layer="59" to-port="123"/>
    <edge from-layer="59" from-port="122" to-layer="60" to-port="125"/>
    <edge from-layer="60" from-port="124" to-layer="61" to-port="127"/>
    <edge from-layer="61" from-port="126" to-layer="62" to-port="129"/>
    <edge from-layer="62" from-port="128" to-layer="63" to-port="131"/>
    <edge from-layer="55" from-port="113" to-layer="63" to-port="132"/>
    <edge from-layer="63" from-port="130" to-layer="64" to-port="134"/>
    <edge from-layer="64" from-port="133" to-layer="65" to-port="136"/>
    <edge from-layer="65" from-port="135" to-layer="66" to-port="138"/>
    <edge from-layer="66" from-port="137" to-layer="67" to-port="140"/>
    <edge from-layer="67" from-port="139" to-layer="68" to-port="142"/>
    <edge from-layer="68" from-port="141" to-layer="69" to-port="144"/>
    <edge from-layer="69" from-port="143" to-layer="70" to-port="146"/>
    <edge from-layer="65" from-port="135" to-layer="71" to-port="148"/>
    <edge from-layer="70" from-port="145" to-layer="72" to-port="150"/>
    <edge from-layer="71" from-port="147" to-layer="72" to-port="151"/>
    <edge from-layer="72" from-port="149" to-layer="73" to-port="153"/>
    <edge from-layer="73" from-port="152" to-layer="74" to-port="155"/>
    <edge from-layer="74" from-port="154" to-layer="75" to-port="157"/>
    <edge from-layer="75" from-port="156" to-layer="76" to-port="159"/>
    <edge from-layer="76" from-port="158" to-layer="77" to-port="161"/>
    <edge from-layer="77" from-port="160" to-layer="78" to-port="163"/>
    <edge from-layer="78" from-port="162" to-layer="79" to-port="165"/>
    <edge from-layer="79" from-port="164" to-layer="80" to-port="167"/>
    <edge from-layer="72" from-port="149" to-layer="80" to-port="168"/>
    <edge from-layer="80" from-port="166" to-layer="81" to-port="170"/>
    <edge from-layer="81" from-port="169" to-layer="82" to-port="172"/>
    <edge from-layer="82" from-port="171" to-layer="83" to-port="174"/>
    <edge from-layer="83" from-port="173" to-layer="84" to-port="176"/>
    <edge from-layer="84" from-port="175" to-layer="85" to-port="178"/>
    <edge from-layer="85" from-port="177" to-layer="86" to-port="180"/>
    <edge from-layer="86" from-port="179" to-layer="87" to-port="182"/>
    <edge from-layer="87" from-port="181" to-layer="88" to-port="184"/>
    <edge from-layer="80" from-port="166" to-layer="88" to-port="185"/>
    <edge from-layer="88" from-port="183" to-layer="89" to-port="187"/>
    <edge from-layer="89" from-port="186" to-layer="90" to-port="189"/>
    <edge from-layer="90" from-port="188" to-layer="91" to-port="191"/>
    <edge from-layer="91" from-port="190" to-layer="92" to-port="193"/>
    <edge from-layer="92" from-port="192" to-layer="93" to-port="195"/>
    <edge from-layer="93" from-port="194" to-layer="94" to-port="197"/>
    <edge from-layer="94" from-port="196" to-layer="95" to-port="199"/>
    <edge from-layer="95" from-port="198" to-layer="96" to-port="201"/>
    <edge from-layer="88" from-port="183" to-layer="96" to-port="202"/>
    <edge from-layer="96" from-port="200" to-layer="97" to-port="204"/>
    <edge from-layer="97" from-port="203" to-layer="98" to-port="206"/>
    <edge from-layer="98" from-port="205" to-layer="99" to-port="208"/>
    <edge from-layer="99" from-port="207" to-layer="100" to-port="210"/>
    <edge from-layer="100" from-port="209" to-layer="101" to-port="212"/>
    <edge from-layer="101" from-port="211" to-layer="102" to-port="214"/>
    <edge from-layer="102" from-port="213" to-layer="103" to-port="216"/>
    <edge from-layer="103" from-port="215" to-layer="104" to-port="218"/>
    <edge from-layer="96" from-port="200" to-layer="104" to-port="219"/>
    <edge from-layer="104" from-port="217" to-layer="105" to-port="221"/>
    <edge from-layer="105" from-port="220" to-layer="106" to-port="223"/>
    <edge from-layer="106" from-port="222" to-layer="107" to-port="225"/>
    <edge from-layer="107" from-port="224" to-layer="108" to-port="227"/>
    <edge from-layer="108" from-port="226" to-layer="109" to-port="229"/>
    <edge from-layer="109" from-port="228" to-layer="110" to-port="231"/>
    <edge from-layer="110" from-port="230" to-layer="111" to-port="233"/>
    <edge from-layer="111" from-port="232" to-layer="112" to-port="235"/>
    <edge from-layer="104" from-port="217" to-layer="112" to-port="236"/>
    <edge from-layer="112" from-port="234" to-layer="113" to-port="238"/>
    <edge from-layer="113" from-port="237" to-layer="114" to-port="240"/>
    <edge from-layer="114" from-port="239" to-layer="115" to-port="242"/>
    <edge from-layer="115" from-port="241" to-layer="116" to-port="244"/>
    <edge from-layer="116" from-port="243" to-layer="117" to-port="246"/>
    <edge from-layer="117" from-port="245" to-layer="118" to-port="248"/>
    <edge from-layer="118" from-port="247" to-layer="119" to-port="250"/>
    <edge from-layer="119" from-port="249" to-layer="120" to-port="252"/>
    <edge from-layer="112" from-port="234" to-layer="120" to-port="253"/>
    <edge from-layer="120" from-port="251" to-layer="121" to-port="255"/>
    <edge from-layer="121" from-port="254" to-layer="122" to-port="257"/>
    <edge from-layer="122" from-port="256" to-layer="123" to-port="259"/>
    <edge from-layer="123" from-port="258" to-layer="124" to-port="261"/>
    <edge from-layer="124" from-port="260" to-layer="125" to-port="263"/>
    <edge from-layer="125" from-port="262" to-layer="126" to-port="265"/>
    <edge from-layer="126" from-port="264" to-layer="127" to-port="267"/>
    <edge from-layer="127" from-port="266" to-layer="128" to-port="269"/>
    <edge from-layer="120" from-port="251" to-layer="128" to-port="270"/>
    <edge from-layer="128" from-port="268" to-layer="129" to-port="272"/>
    <edge from-layer="129" from-port="271" to-layer="130" to-port="274"/>
    <edge from-layer="130" from-port="273" to-layer="131" to-port="276"/>
    <edge from-layer="131" from-port="275" to-layer="132" to-port="278"/>
    <edge from-layer="132" from-port="277" to-layer="133" to-port="280"/>
    <edge from-layer="133" from-port="279" to-layer="134" to-port="282"/>
    <edge from-layer="134" from-port="281" to-layer="135" to-port="284"/>
    <edge from-layer="135" from-port="283" to-layer="136" to-port="286"/>
    <edge from-layer="128" from-port="268" to-layer="136" to-port="287"/>
    <edge from-layer="136" from-port="285" to-layer="137" to-port="289"/>
    <edge from-layer="137" from-port="288" to-layer="138" to-port="291"/>
    <edge from-layer="138" from-port="290" to-layer="139" to-port="293"/>
    <edge from-layer="139" from-port="292" to-layer="140" to-port="295"/>
    <edge from-layer="140" from-port="294" to-layer="141" to-port="297"/>
    <edge from-layer="141" from-port="296" to-layer="142" to-port="299"/>
    <edge from-layer="142" from-port="298" to-layer="143" to-port="301"/>
    <edge from-layer="143" from-port="300" to-layer="144" to-port="303"/>
    <edge from-layer="136" from-port="285" to-layer="144" to-port="304"/>
    <edge from-layer="144" from-port="302" to-layer="145" to-port="306"/>
    <edge from-layer="145" from-port="305" to-layer="146" to-port="308"/>
    <edge from-layer="146" from-port="307" to-layer="147" to-port="310"/>
    <edge from-layer="147" from-port="309" to-layer="148" to-port="312"/>
    <edge from-layer="148" from-port="311" to-layer="149" to-port="314"/>
    <edge from-layer="149" from-port="313" to-layer="150" to-port="316"/>
    <edge from-layer="150" from-port="315" to-layer="151" to-port="318"/>
    <edge from-layer="151" from-port="317" to-layer="152" to-port="320"/>
    <edge from-layer="144" from-port="302" to-layer="152" to-port="321"/>
    <edge from-layer="152" from-port="319" to-layer="153" to-port="323"/>
    <edge from-layer="153" from-port="322" to-layer="154" to-port="325"/>
    <edge from-layer="154" from-port="324" to-layer="155" to-port="327"/>
    <edge from-layer="155" from-port="326" to-layer="156" to-port="329"/>
    <edge from-layer="156" from-port="328" to-layer="157" to-port="331"/>
    <edge from-layer="157" from-port="330" to-layer="158" to-port="333"/>
    <edge from-layer="158" from-port="332" to-layer="159" to-port="335"/>
    <edge from-layer="159" from-port="334" to-layer="160" to-port="337"/>
    <edge from-layer="152" from-port="319" to-layer="160" to-port="338"/>
    <edge from-layer="160" from-port="336" to-layer="161" to-port="340"/>
    <edge from-layer="161" from-port="339" to-layer="162" to-port="342"/>
    <edge from-layer="162" from-port="341" to-layer="163" to-port="344"/>
    <edge from-layer="163" from-port="343" to-layer="164" to-port="346"/>
    <edge from-layer="164" from-port="345" to-layer="165" to-port="348"/>
    <edge from-layer="165" from-port="347" to-layer="166" to-port="350"/>
    <edge from-layer="166" from-port="349" to-layer="167" to-port="352"/>
    <edge from-layer="167" from-port="351" to-layer="168" to-port="354"/>
    <edge from-layer="160" from-port="336" to-layer="168" to-port="355"/>
    <edge from-layer="168" from-port="353" to-layer="169" to-port="357"/>
    <edge from-layer="169" from-port="356" to-layer="170" to-port="359"/>
    <edge from-layer="170" from-port="358" to-layer="171" to-port="361"/>
    <edge from-layer="171" from-port="360" to-layer="172" to-port="363"/>
    <edge from-layer="172" from-port="362" to-layer="173" to-port="365"/>
    <edge from-layer="173" from-port="364" to-layer="174" to-port="367"/>
    <edge from-layer="174" from-port="366" to-layer="175" to-port="369"/>
    <edge from-layer="175" from-port="368" to-layer="176" to-port="371"/>
    <edge from-layer="168" from-port="353" to-layer="176" to-port="372"/>
    <edge from-layer="176" from-port="370" to-layer="177" to-port="374"/>
    <edge from-layer="177" from-port="373" to-layer="178" to-port="376"/>
    <edge from-layer="178" from-port="375" to-layer="179" to-port="378"/>
    <edge from-layer="179" from-port="377" to-layer="180" to-port="380"/>
    <edge from-layer="180" from-port="379" to-layer="181" to-port="382"/>
    <edge from-layer="181" from-port="381" to-layer="182" to-port="384"/>
    <edge from-layer="182" from-port="383" to-layer="183" to-port="386"/>
    <edge from-layer="183" from-port="385" to-layer="184" to-port="388"/>
    <edge from-layer="176" from-port="370" to-layer="184" to-port="389"/>
    <edge from-layer="184" from-port="387" to-layer="185" to-port="391"/>
    <edge from-layer="185" from-port="390" to-layer="186" to-port="393"/>
    <edge from-layer="186" from-port="392" to-layer="187" to-port="395"/>
    <edge from-layer="187" from-port="394" to-layer="188" to-port="397"/>
    <edge from-layer="188" from-port="396" to-layer="189" to-port="399"/>
    <edge from-layer="189" from-port="398" to-layer="190" to-port="401"/>
    <edge from-layer="190" from-port="400" to-layer="191" to-port="403"/>
    <edge from-layer="191" from-port="402" to-layer="192" to-port="405"/>
    <edge from-layer="184" from-port="387" to-layer="192" to-port="406"/>
    <edge from-layer="192" from-port="404" to-layer="193" to-port="408"/>
    <edge from-layer="193" from-port="407" to-layer="194" to-port="410"/>
    <edge from-layer="194" from-port="409" to-layer="195" to-port="412"/>
    <edge from-layer="195" from-port="411" to-layer="196" to-port="414"/>
    <edge from-layer="196" from-port="413" to-layer="197" to-port="416"/>
    <edge from-layer="197" from-port="415" to-layer="198" to-port="418"/>
    <edge from-layer="198" from-port="417" to-layer="199" to-port="420"/>
    <edge from-layer="199" from-port="419" to-layer="200" to-port="422"/>
    <edge from-layer="192" from-port="404" to-layer="200" to-port="423"/>
    <edge from-layer="200" from-port="421" to-layer="201" to-port="425"/>
    <edge from-layer="201" from-port="424" to-layer="202" to-port="427"/>
    <edge from-layer="202" from-port="426" to-layer="203" to-port="429"/>
    <edge from-layer="203" from-port="428" to-layer="204" to-port="431"/>
    <edge from-layer="204" from-port="430" to-layer="205" to-port="433"/>
    <edge from-layer="205" from-port="432" to-layer="206" to-port="435"/>
    <edge from-layer="206" from-port="434" to-layer="207" to-port="437"/>
    <edge from-layer="207" from-port="436" to-layer="208" to-port="439"/>
    <edge from-layer="200" from-port="421" to-layer="208" to-port="440"/>
    <edge from-layer="208" from-port="438" to-layer="209" to-port="442"/>
    <edge from-layer="209" from-port="441" to-layer="210" to-port="444"/>
    <edge from-layer="210" from-port="443" to-layer="211" to-port="446"/>
    <edge from-layer="211" from-port="445" to-layer="212" to-port="448"/>
    <edge from-layer="212" from-port="447" to-layer="213" to-port="450"/>
    <edge from-layer="213" from-port="449" to-layer="214" to-port="452"/>
    <edge from-layer="214" from-port="451" to-layer="215" to-port="454"/>
    <edge from-layer="215" from-port="453" to-layer="216" to-port="456"/>
    <edge from-layer="208" from-port="438" to-layer="216" to-port="457"/>
    <edge from-layer="216" from-port="455" to-layer="217" to-port="459"/>
    <edge from-layer="217" from-port="458" to-layer="218" to-port="461"/>
    <edge from-layer="218" from-port="460" to-layer="219" to-port="463"/>
    <edge from-layer="219" from-port="462" to-layer="220" to-port="465"/>
    <edge from-layer="220" from-port="464" to-layer="221" to-port="467"/>
    <edge from-layer="221" from-port="466" to-layer="222" to-port="469"/>
    <edge from-layer="222" from-port="468" to-layer="223" to-port="471"/>
    <edge from-layer="223" from-port="470" to-layer="224" to-port="473"/>
    <edge from-layer="216" from-port="455" to-layer="224" to-port="474"/>
    <edge from-layer="224" from-port="472" to-layer="225" to-port="476"/>
    <edge from-layer="225" from-port="475" to-layer="226" to-port="478"/>
    <edge from-layer="226" from-port="477" to-layer="227" to-port="480"/>
    <edge from-layer="227" from-port="479" to-layer="228" to-port="482"/>
    <edge from-layer="228" from-port="481" to-layer="229" to-port="484"/>
    <edge from-layer="229" from-port="483" to-layer="230" to-port="486"/>
    <edge from-layer="230" from-port="485" to-layer="231" to-port="488"/>
    <edge from-layer="231" from-port="487" to-layer="232" to-port="490"/>
    <edge from-layer="224" from-port="472" to-layer="232" to-port="491"/>
    <edge from-layer="232" from-port="489" to-layer="233" to-port="493"/>
    <edge from-layer="233" from-port="492" to-layer="234" to-port="495"/>
    <edge from-layer="234" from-port="494" to-layer="235" to-port="497"/>
    <edge from-layer="235" from-port="496" to-layer="236" to-port="499"/>
    <edge from-layer="236" from-port="498" to-layer="237" to-port="501"/>
    <edge from-layer="237" from-port="500" to-layer="238" to-port="503"/>
    <edge from-layer="238" from-port="502" to-layer="239" to-port="505"/>
    <edge from-layer="239" from-port="504" to-layer="240" to-port="507"/>
    <edge from-layer="232" from-port="489" to-layer="240" to-port="508"/>
    <edge from-layer="240" from-port="506" to-layer="241" to-port="510"/>
    <edge from-layer="241" from-port="509" to-layer="242" to-port="512"/>
    <edge from-layer="242" from-port="511" to-layer="243" to-port="514"/>
    <edge from-layer="243" from-port="513" to-layer="244" to-port="516"/>
    <edge from-layer="244" from-port="515" to-layer="245" to-port="518"/>
    <edge from-layer="245" from-port="517" to-layer="246" to-port="520"/>
    <edge from-layer="246" from-port="519" to-layer="247" to-port="522"/>
    <edge from-layer="247" from-port="521" to-layer="248" to-port="524"/>
    <edge from-layer="240" from-port="506" to-layer="248" to-port="525"/>
    <edge from-layer="248" from-port="523" to-layer="249" to-port="527"/>
    <edge from-layer="249" from-port="526" to-layer="250" to-port="529"/>
    <edge from-layer="250" from-port="528" to-layer="251" to-port="531"/>
    <edge from-layer="251" from-port="530" to-layer="252" to-port="533"/>
    <edge from-layer="252" from-port="532" to-layer="253" to-port="535"/>
    <edge from-layer="253" from-port="534" to-layer="254" to-port="537"/>
    <edge from-layer="254" from-port="536" to-layer="255" to-port="539"/>
    <edge from-layer="250" from-port="528" to-layer="256" to-port="541"/>
    <edge from-layer="255" from-port="538" to-layer="257" to-port="543"/>
    <edge from-layer="256" from-port="540" to-layer="257" to-port="544"/>
    <edge from-layer="257" from-port="542" to-layer="258" to-port="546"/>
    <edge from-layer="258" from-port="545" to-layer="259" to-port="548"/>
    <edge from-layer="259" from-port="547" to-layer="260" to-port="550"/>
    <edge from-layer="260" from-port="549" to-layer="261" to-port="552"/>
    <edge from-layer="261" from-port="551" to-layer="262" to-port="554"/>
    <edge from-layer="262" from-port="553" to-layer="263" to-port="556"/>
    <edge from-layer="263" from-port="555" to-layer="264" to-port="558"/>
    <edge from-layer="264" from-port="557" to-layer="265" to-port="560"/>
    <edge from-layer="257" from-port="542" to-layer="265" to-port="561"/>
    <edge from-layer="265" from-port="559" to-layer="266" to-port="563"/>
    <edge from-layer="266" from-port="562" to-layer="267" to-port="565"/>
    <edge from-layer="267" from-port="564" to-layer="268" to-port="567"/>
    <edge from-layer="268" from-port="566" to-layer="269" to-port="569"/>
    <edge from-layer="269" from-port="568" to-layer="270" to-port="571"/>
    <edge from-layer="270" from-port="570" to-layer="271" to-port="573"/>
    <edge from-layer="271" from-port="572" to-layer="272" to-port="575"/>
    <edge from-layer="272" from-port="574" to-layer="273" to-port="577"/>
    <edge from-layer="265" from-port="559" to-layer="273" to-port="578"/>
    <edge from-layer="273" from-port="576" to-layer="274" to-port="580"/>
    <edge from-layer="274" from-port="579" to-layer="275" to-port="582"/>
    <edge from-layer="275" from-port="581" to-layer="276" to-port="584"/>
    <edge from-layer="276" from-port="583" to-layer="277" to-port="586"/>
    <edge from-layer="277" from-port="585" to-layer="278" to-port="588"/>
    <edge from-layer="278" from-port="587" to-layer="279" to-port="590"/>
  </edges>
  <pre-process reference-layer-name="data">
    <channel id="0">
      <mean value="0"/>
    </channel>
    <channel id="1">
      <mean value="0"/>
    </channel>
    <channel id="2">
      <mean value="0"/>
    </channel>
  </pre-process>
</net>
